backend/motion-server/app/trained_model/best_model.pt (torch, 915125 bytes, 23 tensors)

adjacency f4 [22, 22]
000000 00 00 80 3e 00 00 80 3e 3a cd 93 3e 00 00 00 00
       0.25 0.25 0.28867513 0.0
000010 00 00 00 00 00 00 00 00 00 00 00 00 00 00 00 00
       0.0 0.0 0.0 0.0
000020 00 00 00 00 00 00 00 00 00 00 00 00 00 00 00 00
       0.0 0.0 0.0 0.0
000030 2e f9 64 3e 00 00 00 00 00 00 00 00 00 00 00 00
       0.2236068 0.0 0.0 0.0
000040 00 00 00 00 00 00 00 00 00 00 00 00 00 00 00 00
       0.0 0.0 0.0 0.0
000050 00 00 00 00 00 00 00 00 00 00 80 3e 00 00 80 3e
       0.0 0.0 0.25 0.25
000060 00 00 00 00 3a cd 93 3e 00 00 00 00 00 00 00 00
       0.0 0.28867513 0.0 0.0
000070 00 00 00 00 00 00 00 00 00 00 00 00 00 00 00 00
       0.0 0.0 0.0 0.0
000080 00 00 00 00 00 00 00 00 00 00 00 00 2e f9 64 3e
       0.0 0.0 0.0 0.2236068
000090 00 00 00 00 00 00 00 00 00 00 00 00 00 00 00 00
       0.0 0.0 0.0 0.0
0000a0 00 00 00 00 00 00 00 00 00 00 00 00 00 00 00 00
       0.0 0.0 0.0 0.0
0000b0 3a cd 93 3e 00 00 00 00 aa aa aa 3e 00 00 00 00
       0.28867513 0.0 0.3333333 0.0
0000c0 aa aa aa 3e 00 00 00 00 00 00 00 00 00 00 00 00
       0.3333333 0.0 0.0 0.0
0000d0 00 00 00 00 00 00 00 00 00 00 00 00 00 00 00 00
       0.0 0.0 0.0 0.0
0000e0 00 00 00 00 00 00 00 00 00 00 00 00 00 00 00 00
       0.0 0.0 0.0 0.0
0000f0 00 00 00 00 00 00 00 00 00 00 00 00 00 00 00 00
       0.0 0.0 0.0 0.0
000100 00 00 00 00 00 00 00 00 00 00 00 00 3a cd 93 3e
       0.0 0.0 0.0 0.28867513
000110 00 00 00 00 aa aa aa 3e 00 00 00 00 aa aa aa 3e
       0.0 0.3333333 0.0 0.3333333
000120 00 00 00 00 00 00 00 00 00 00 00 00 00 00 00 00
       0.0 0.0 0.0 0.0
000130 00 00 00 00 00 00 00 00 00 00 00 00 00 00 00 00
       0.0 0.0 0.0 0.0
000140 00 00 00 00 00 00 00 00 00 00 00 00 00 00 00 00
       0.0 0.0 0.0 0.0
000150 00 00 00 00 00 00 00 00 00 00 00 00 00 00 00 00
       0.0 0.0 0.0 0.0
000160 00 00 00 00 00 00 00 00 aa aa aa 3e 00 00 00 00
       0.0 0.0 0.3333333 0.0
000170 aa aa aa 3e 00 00 00 00 aa aa aa 3e 00 00 00 00
       0.3333333 0.0 0.3333333 0.0
000180 00 00 00 00 00 00 00 00 00 00 00 00 00 00 00 00
       0.0 0.0 0.0 0.0
000190 00 00 00 00 00 00 00 00 00 00 00 00 00 00 00 00
       0.0 0.0 0.0 0.0
0001a0 00 00 00 00 00 00 00 00 00 00 00 00 00 00 00 00
       0.0 0.0 0.0 0.0
0001b0 00 00 00 00 00 00 00 00 00 00 00 00 00 00 00 00
       0.0 0.0 0.0 0.0
0001c0 00 00 00 00 aa aa aa 3e 00 00 00 00 aa aa aa 3e
       0.0 0.3333333 0.0 0.3333333
0001d0 00 00 00 00 aa aa aa 3e 00 00 00 00 00 00 00 00
       0.0 0.3333333 0.0 0.0
0001e0 00 00 00 00 00 00 00 00 00 00 00 00 00 00 00 00
       0.0 0.0 0.0 0.0
0001f0 00 00 00 00 00 00 00 00 00 00 00 00 00 00 00 00
       0.0 0.0 0.0 0.0
000200 00 00 00 00 00 00 00 00 00 00 00 00 00 00 00 00
       0.0 0.0 0.0 0.0
000210 00 00 00 00 00 00 00 00 00 00 00 00 00 00 00 00
       0.0 0.0 0.0 0.0
000220 aa aa aa 3e 00 00 00 00 aa aa aa 3e 00 00 00 00
       0.3333333 0.0 0.3333333 0.0
000230 aa aa aa 3e 00 00 00 00 00 00 00 00 00 00 00 00
       0.3333333 0.0 0.0 0.0
000240 00 00 00 00 00 00 00 00 00 00 00 00 00 00 00 00
       0.0 0.0 0.0 0.0
000250 00 00 00 00 00 00 00 00 00 00 00 00 00 00 00 00
       0.0 0.0 0.0 0.0
000260 00 00 00 00 00 00 00 00 00 00 00 00 00 00 00 00
       0.0 0.0 0.0 0.0
000270 00 00 00 00 00 00 00 00 00 00 00 00 aa aa aa 3e
       0.0 0.0 0.0 0.3333333
000280 00 00 00 00 aa aa aa 3e 00 00 00 00 aa aa aa 3e
       0.0 0.3333333 0.0 0.3333333
000290 00 00 00 00 00 00 00 00 00 00 00 00 00 00 00 00
       0.0 0.0 0.0 0.0
0002a0 00 00 00 00 00 00 00 00 00 00 00 00 00 00 00 00
       0.0 0.0 0.0 0.0
0002b0 00 00 00 00 00 00 00 00 00 00 00 00 00 00 00 00
       0.0 0.0 0.0 0.0
0002c0 00 00 00 00 00 00 00 00 00 00 00 00 00 00 00 00
       0.0 0.0 0.0 0.0
0002d0 00 00 00 00 00 00 00 00 aa aa aa 3e 00 00 00 00
       0.0 0.0 0.3333333 0.0
0002e0 aa aa aa 3e 00 00 00 00 eb 05 d1 3e 00 00 00 00
       0.3333333 0.0 0.40824828 0.0
0002f0 00 00 00 00 00 00 00 00 00 00 00 00 00 00 00 00
       0.0 0.0 0.0 0.0
000300 00 00 00 00 00 00 00 00 00 00 00 00 00 00 00 00
       0.0 0.0 0.0 0.0
000310 00 00 00 00 00 00 00 00 00 00 00 00 00 00 00 00
       0.0 0.0 0.0 0.0
000320 00 00 00 00 00 00 00 00 00 00 00 00 00 00 00 00
       0.0 0.0 0.0 0.0
000330 00 00 00 00 aa aa aa 3e 00 00 00 00 aa aa aa 3e
       0.0 0.3333333 0.0 0.3333333
000340 00 00 00 00 eb 05 d1 3e 00 00 00 00 00 00 00 00
       0.0 0.40824828 0.0 0.0
000350 00 00 00 00 00 00 00 00 00 00 00 00 00 00 00 00
       0.0 0.0 0.0 0.0
000360 00 00 00 00 00 00 00 00 00 00 00 00 00 00 00 00
       0.0 0.0 0.0 0.0
000370 00 00 00 00 00 00 00 00 00 00 00 00 00 00 00 00
       0.0 0.0 0.0 0.0
000380 00 00 00 00 00 00 00 00 00 00 00 00 00 00 00 00
       0.0 0.0 0.0 0.0
000390 eb 05 d1 3e 00 00 00 00 ff ff ff 3e 00 00 00 00
       0.40824828 0.0 0.49999997 0.0
0003a0 00 00 00 00 00 00 00 00 00 00 00 00 00 00 00 00
       0.0 0.0 0.0 0.0
0003b0 00 00 00 00 00 00 00 00 00 00 00 00 00 00 00 00
       0.0 0.0 0.0 0.0
0003c0 00 00 00 00 00 00 00 00 00 00 00 00 00 00 00 00
       0.0 0.0 0.0 0.0
0003d0 00 00 00 00 00 00 00 00 00 00 00 00 00 00 00 00
       0.0 0.0 0.0 0.0
0003e0 00 00 00 00 00 00 00 00 00 00 00 00 eb 05 d1 3e
       0.0 0.0 0.0 0.40824828
0003f0 00 00 00 00 ff ff ff 3e 00 00 00 00 00 00 00 00
       0.0 0.49999997 0.0 0.0

spatial_gcn.layers.0.adjacency f4 [22, 22]
000000 00 00 80 3e 00 00 80 3e 3a cd 93 3e 00 00 00 00
       0.25 0.25 0.28867513 0.0
000010 00 00 00 00 00 00 00 00 00 00 00 00 00 00 00 00
       0.0 0.0 0.0 0.0
000020 00 00 00 00 00 00 00 00 00 00 00 00 00 00 00 00
       0.0 0.0 0.0 0.0
000030 2e f9 64 3e 00 00 00 00 00 00 00 00 00 00 00 00
       0.2236068 0.0 0.0 0.0
000040 00 00 00 00 00 00 00 00 00 00 00 00 00 00 00 00
       0.0 0.0 0.0 0.0
000050 00 00 00 00 00 00 00 00 00 00 80 3e 00 00 80 3e
       0.0 0.0 0.25 0.25
000060 00 00 00 00 3a cd 93 3e 00 00 00 00 00 00 00 00
       0.0 0.28867513 0.0 0.0
000070 00 00 00 00 00 00 00 00 00 00 00 00 00 00 00 00
       0.0 0.0 0.0 0.0
000080 00 00 00 00 00 00 00 00 00 00 00 00 2e f9 64 3e
       0.0 0.0 0.0 0.2236068
000090 00 00 00 00 00 00 00 00 00 00 00 00 00 00 00 00
       0.0 0.0 0.0 0.0
0000a0 00 00 00 00 00 00 00 00 00 00 00 00 00 00 00 00
       0.0 0.0 0.0 0.0
0000b0 3a cd 93 3e 00 00 00 00 aa aa aa 3e 00 00 00 00
       0.28867513 0.0 0.3333333 0.0
0000c0 aa aa aa 3e 00 00 00 00 00 00 00 00 00 00 00 00
       0.3333333 0.0 0.0 0.0
0000d0 00 00 00 00 00 00 00 00 00 00 00 00 00 00 00 00
       0.0 0.0 0.0 0.0
0000e0 00 00 00 00 00 00 00 00 00 00 00 00 00 00 00 00
       0.0 0.0 0.0 0.0
0000f0 00 00 00 00 00 00 00 00 00 00 00 00 00 00 00 00
       0.0 0.0 0.0 0.0
000100 00 00 00 00 00 00 00 00 00 00 00 00 3a cd 93 3e
       0.0 0.0 0.0 0.28867513
000110 00 00 00 00 aa aa aa 3e 00 00 00 00 aa aa aa 3e
       0.0 0.3333333 0.0 0.3333333
000120 00 00 00 00 00 00 00 00 00 00 00 00 00 00 00 00
       0.0 0.0 0.0 0.0
000130 00 00 00 00 00 00 00 00 00 00 00 00 00 00 00 00
       0.0 0.0 0.0 0.0
000140 00 00 00 00 00 00 00 00 00 00 00 00 00 00 00 00
       0.0 0.0 0.0 0.0
000150 00 00 00 00 00 00 00 00 00 00 00 00 00 00 00 00
       0.0 0.0 0.0 0.0
000160 00 00 00 00 00 00 00 00 aa aa aa 3e 00 00 00 00
       0.0 0.0 0.3333333 0.0
000170 aa aa aa 3e 00 00 00 00 aa aa aa 3e 00 00 00 00
       0.3333333 0.0 0.3333333 0.0
000180 00 00 00 00 00 00 00 00 00 00 00 00 00 00 00 00
       0.0 0.0 0.0 0.0
000190 00 00 00 00 00 00 00 00 00 00 00 00 00 00 00 00
       0.0 0.0 0.0 0.0
0001a0 00 00 00 00 00 00 00 00 00 00 00 00 00 00 00 00
       0.0 0.0 0.0 0.0
0001b0 00 00 00 00 00 00 00 00 00 00 00 00 00 00 00 00
       0.0 0.0 0.0 0.0
0001c0 00 00 00 00 aa aa aa 3e 00 00 00 00 aa aa aa 3e
       0.0 0.3333333 0.0 0.3333333
0001d0 00 00 00 00 aa aa aa 3e 00 00 00 00 00 00 00 00
       0.0 0.3333333 0.0 0.0
0001e0 00 00 00 00 00 00 00 00 00 00 00 00 00 00 00 00
       0.0 0.0 0.0 0.0
0001f0 00 00 00 00 00 00 00 00 00 00 00 00 00 00 00 00
       0.0 0.0 0.0 0.0
000200 00 00 00 00 00 00 00 00 00 00 00 00 00 00 00 00
       0.0 0.0 0.0 0.0
000210 00 00 00 00 00 00 00 00 00 00 00 00 00 00 00 00
       0.0 0.0 0.0 0.0
000220 aa aa aa 3e 00 00 00 00 aa aa aa 3e 00 00 00 00
       0.3333333 0.0 0.3333333 0.0
000230 aa aa aa 3e 00 00 00 00 00 00 00 00 00 00 00 00
       0.3333333 0.0 0.0 0.0
000240 00 00 00 00 00 00 00 00 00 00 00 00 00 00 00 00
       0.0 0.0 0.0 0.0
000250 00 00 00 00 00 00 00 00 00 00 00 00 00 00 00 00
       0.0 0.0 0.0 0.0
000260 00 00 00 00 00 00 00 00 00 00 00 00 00 00 00 00
       0.0 0.0 0.0 0.0
000270 00 00 00 00 00 00 00 00 00 00 00 00 aa aa aa 3e
       0.0 0.0 0.0 0.3333333
000280 00 00 00 00 aa aa aa 3e 00 00 00 00 aa aa aa 3e
       0.0 0.3333333 0.0 0.3333333
000290 00 00 00 00 00 00 00 00 00 00 00 00 00 00 00 00
       0.0 0.0 0.0 0.0
0002a0 00 00 00 00 00 00 00 00 00 00 00 00 00 00 00 00
       0.0 0.0 0.0 0.0
0002b0 00 00 00 00 00 00 00 00 00 00 00 00 00 00 00 00
       0.0 0.0 0.0 0.0
0002c0 00 00 00 00 00 00 00 00 00 00 00 00 00 00 00 00
       0.0 0.0 0.0 0.0
0002d0 00 00 00 00 00 00 00 00 aa aa aa 3e 00 00 00 00
       0.0 0.0 0.3333333 0.0
0002e0 aa aa aa 3e 00 00 00 00 eb 05 d1 3e 00 00 00 00
       0.3333333 0.0 0.40824828 0.0
0002f0 00 00 00 00 00 00 00 00 00 00 00 00 00 00 00 00
       0.0 0.0 0.0 0.0
000300 00 00 00 00 00 00 00 00 00 00 00 00 00 00 00 00
       0.0 0.0 0.0 0.0
000310 00 00 00 00 00 00 00 00 00 00 00 00 00 00 00 00
       0.0 0.0 0.0 0.0
000320 00 00 00 00 00 00 00 00 00 00 00 00 00 00 00 00
       0.0 0.0 0.0 0.0
000330 00 00 00 00 aa aa aa 3e 00 00 00 00 aa aa aa 3e
       0.0 0.3333333 0.0 0.3333333
000340 00 00 00 00 eb 05 d1 3e 00 00 00 00 00 00 00 00
       0.0 0.40824828 0.0 0.0
000350 00 00 00 00 00 00 00 00 00 00 00 00 00 00 00 00
       0.0 0.0 0.0 0.0
000360 00 00 00 00 00 00 00 00 00 00 00 00 00 00 00 00
       0.0 0.0 0.0 0.0
000370 00 00 00 00 00 00 00 00 00 00 00 00 00 00 00 00
       0.0 0.0 0.0 0.0
000380 00 00 00 00 00 00 00 00 00 00 00 00 00 00 00 00
       0.0 0.0 0.0 0.0
000390 eb 05 d1 3e 00 00 00 00 ff ff ff 3e 00 00 00 00
       0.40824828 0.0 0.49999997 0.0
0003a0 00 00 00 00 00 00 00 00 00 00 00 00 00 00 00 00
       0.0 0.0 0.0 0.0
0003b0 00 00 00 00 00 00 00 00 00 00 00 00 00 00 00 00
       0.0 0.0 0.0 0.0
0003c0 00 00 00 00 00 00 00 00 00 00 00 00 00 00 00 00
       0.0 0.0 0.0 0.0
0003d0 00 00 00 00 00 00 00 00 00 00 00 00 00 00 00 00
       0.0 0.0 0.0 0.0
0003e0 00 00 00 00 00 00 00 00 00 00 00 00 eb 05 d1 3e
       0.0 0.0 0.0 0.40824828
0003f0 00 00 00 00 ff ff ff 3e 00 00 00 00 00 00 00 00
       0.0 0.49999997 0.0 0.0

spatial_gcn.layers.0.linear.weight f4 [64, 2]
000000 3d 88 83 3e e5 2b 87 be 20 92 16 bf cd ae de 3e
       0.2568988 -0.26400676 -0.5881672 0.43492737
000010 de c7 a5 3e 9b bb 10 bf 17 fd e1 be 45 3d c9 3e
       0.3237905 -0.56536263 -0.44138405 0.39304557
000020 6d 04 17 bf 8f ba 47 3e fd 17 91 be 77 ef b3 be
       -0.5899113 0.1950476 -0.28338614 -0.35143635
000030 85 b2 12 bf 95 7a 09 bf 1a 23 27 bf d8 a6 17 be
       -0.5730365 -0.5370267 -0.65287936 -0.1480974
000040 bc 7c 29 bf 64 ed 12 3f db 6a 9d be 61 85 dd be
       -0.66205955 0.5739348 -0.30745587 -0.43265823
000050 04 35 20 3f 4a 38 2f bf 76 10 1c bf 4d 50 74 bc
       0.62580895 -0.68445265 -0.6096262 -0.014911723
000060 9b c7 f1 3e 00 8c 16 3e a1 80 1e bd 53 a0 df be
       0.472226 0.14701843 -0.03869689 -0.43677005
000070 df 55 20 3e 64 3c db bd 72 bf 60 be 30 a5 12 bf
       0.15657757 -0.10704878 -0.2194803 -0.57283306
000080 07 5e cb 3e 58 64 d4 be 10 2e 2a bf ff 2e c0 be
       0.39720175 -0.41482806 -0.66476536 -0.37535855
000090 7f 72 0d 3d 62 bc cd be d8 25 fe be d7 2f ce be
       0.03453302 -0.40182787 -0.49638247 -0.40270874
0000a0 2c 5d 0c 3b b2 1b 3c be 65 b9 f2 3c b5 1f 0b bf
       0.002141784 -0.1836994 0.029629419 -0.54345256
0000b0 14 8e 7f 3e 5d d6 b9 3c fa 67 1a bd eb 7b 0b bd
       0.24956542 0.022685224 -0.037696816 -0.034053724
0000c0 d4 62 2f be ff 98 21 3e f8 7b 01 3f 90 97 f9 3e
       -0.17127544 0.1578102 0.50579786 0.48748446
0000d0 bb 1a 88 3d 8d 84 e1 be 57 5e 18 3e 03 af a9 3e
       0.066457234 -0.4404644 0.14879738 0.33141336
0000e0 5a 73 16 3f c1 38 bf be a1 06 f2 3e e8 6a d9 be
       0.5876976 -0.37347987 0.47270682 -0.42464375
0000f0 85 fc 9d 3e 35 0b 41 be f2 6c ba bd 21 48 1c bf
       0.3085672 -0.18851931 -0.09102811 -0.6104756
000100 d9 57 e1 be e5 2c dc bb b0 9b b2 be 2e e9 28 3f
       -0.44012335 -0.006719219 -0.34884405 0.65980804
000110 ae 08 e0 be 1c c8 29 be 64 3e 8b be 95 46 31 3f
       -0.43756622 -0.16580242 -0.27196038 0.69248325
000120 8e c2 2c 3f 7b 7d 9a be bf fb 81 3e bb 70 08 3f
       0.67484367 -0.3017386 0.2538738 0.53297013
000130 5f a7 01 bf 4b d4 0a 3e 94 fc 44 be 17 9c 0f bf
       -0.50646013 0.13557546 -0.19236976 -0.5609755
000140 24 fa d9 3e 4a a2 75 3e 10 83 6e 3e 0d 38 82 be
       0.42573655 0.2398769 0.23292184 -0.25433388
000150 1f b5 46 3e da a4 c8 be 95 63 99 bc bc 05 61 3e
       0.1940503 -0.39188272 -0.018724242 0.21974844
000160 91 b0 af be 0c c0 f8 3e b7 9a 6d be 71 ee 0a bf
       -0.34314397 0.4858402 -0.2320355 -0.5427008
000170 82 a1 4c 3e 8c 20 e2 be d1 1e 17 3f 54 0b 2c bf
       0.19983485 -0.44165456 0.590314 -0.67204785
000180 d1 3b 16 be 03 3b 43 bf 51 a3 c6 bd 19 ce 20 3e
       -0.14671256 -0.7626192 -0.09699119 0.1570362
000190 9c f4 2b bf dc a5 1a bf e8 f8 1c be 88 bb 91 3e
       -0.6717012 -0.6040933 -0.15329325 0.28463387
0001a0 3c df 31 bf 21 21 a1 be 1e 44 16 3f 08 06 8f 3d
       -0.69481254 -0.31470588 0.5869769 0.06983572
0001b0 81 6d d6 3e 5d 23 e9 bd a1 43 aa 3e 94 28 2b bb
       0.4188042 -0.11383698 0.33254722 -0.0026116716
0001c0 0f 1c 3d bf 9e e0 c9 3e 64 26 2c bf f3 aa e6 3e
       -0.7387094 0.39429182 -0.6724608 0.450523
0001d0 15 fa fd 3e c7 9a ab bd d7 3f 12 3f 9d 8e e2 be
       0.4960486 -0.08379131 0.5712866 -0.4424943
0001e0 7d 16 2a 3d 00 b8 d7 bd fc 1a 84 3e 28 b1 5e bd
       0.041525353 -0.10533142 0.25801837 -0.054368168
0001f0 e0 ba df be 8f 4c 04 be 93 77 b8 3e 7d 42 f4 3d
       -0.43697262 -0.1291983 0.36028728 0.11926744

spatial_gcn.layers.0.linear.bias f4 [64]
000000 99 cb 25 bf 2c 46 89 3d ae cc b8 3e 08 d3 0d bf
       -0.6476379 0.06702837 0.36093658 -0.55400133
000010 a2 81 28 bf f7 c6 93 be be 7b 83 3d fe e2 cb 3e
       -0.65822804 -0.28862736 0.06420086 0.3982162
000020 6c 8e 87 bd bf 97 dc 3e cc c7 60 be 68 a7 1c bf
       -0.06618962 0.43084523 -0.21951216 -0.6119294
000030 19 c5 1b 3e 7b 14 71 3e 03 9e aa 3e 0e 3f 00 bd
       0.15211906 0.23542969 0.33323678 -0.031310134
000040 01 5c 2a be f6 92 1d be 7a dc d4 bb c6 8a 0a bf
       -0.16636659 -0.15388092 -0.0064960094 -0.54118
000050 ed d4 77 3e 2c 7e 80 3e 4f e1 bf bd 06 8a 9f be
       0.24202318 0.25096262 -0.09369146 -0.3115999
000060 87 06 9e be 6f f8 03 bf ed db 21 bd 23 58 14 bd
       -0.30864355 -0.51550955 -0.03951638 -0.036216866
000070 61 30 9e bb 42 75 24 bc 44 f5 6e be ce 54 b0 3e
       -0.0048275446 -0.010037722 -0.23335749 0.344397
000080 1e 65 f4 bd cb 51 00 bf b9 a1 90 be a5 63 6a be
       -0.11933349 -0.50124806 -0.28248385 -0.22889574
000090 ba e1 60 be be 45 cd be d0 3b 00 bf ed b9 0b be
       -0.21961108 -0.40092272 -0.50091267 -0.13645144
0000a0 0a cd b5 be d7 8c 58 3e ca b8 83 3e b0 df 8d be
       -0.35507995 0.21147476 0.2572692 -0.27709723
0000b0 5c a9 85 be 7c a5 f0 3d d1 72 c7 3e ad 1d 32 bf
       -0.26105773 0.11750314 0.38954785 -0.6957653
0000c0 a7 66 e6 3e a7 d4 b5 be 52 f6 21 3f 6e 31 25 3d
       0.45000193 -0.35513803 0.6326648 0.040330343
0000d0 a6 15 cd be df a3 1a bf 14 f8 a4 3e f6 50 c2 be
       -0.4005558 -0.604063 0.3222052 -0.37952393
0000e0 87 1f 38 3e d1 5b 20 bf 12 2e 22 bf 0a a5 ed bc
       0.17980777 -0.626401 -0.6335155 -0.02900936
0000f0 4c 64 db 3d 35 e1 e0 be a0 7e 2c bf d4 3c a5 3e
       0.107124895 -0.4392182 -0.67380714 0.3227297

spatial_gcn.layers.2.adjacency f4 [22, 22]
000000 00 00 80 3e 00 00 80 3e 3a cd 93 3e 00 00 00 00
       0.25 0.25 0.28867513 0.0
000010 00 00 00 00 00 00 00 00 00 00 00 00 00 00 00 00
       0.0 0.0 0.0 0.0
000020 00 00 00 00 00 00 00 00 00 00 00 00 00 00 00 00
       0.0 0.0 0.0 0.0
000030 2e f9 64 3e 00 00 00 00 00 00 00 00 00 00 00 00
       0.2236068 0.0 0.0 0.0
000040 00 00 00 00 00 00 00 00 00 00 00 00 00 00 00 00
       0.0 0.0 0.0 0.0
000050 00 00 00 00 00 00 00 00 00 00 80 3e 00 00 80 3e
       0.0 0.0 0.25 0.25
000060 00 00 00 00 3a cd 93 3e 00 00 00 00 00 00 00 00
       0.0 0.28867513 0.0 0.0
000070 00 00 00 00 00 00 00 00 00 00 00 00 00 00 00 00
       0.0 0.0 0.0 0.0
000080 00 00 00 00 00 00 00 00 00 00 00 00 2e f9 64 3e
       0.0 0.0 0.0 0.2236068
000090 00 00 00 00 00 00 00 00 00 00 00 00 00 00 00 00
       0.0 0.0 0.0 0.0
0000a0 00 00 00 00 00 00 00 00 00 00 00 00 00 00 00 00
       0.0 0.0 0.0 0.0
0000b0 3a cd 93 3e 00 00 00 00 aa aa aa 3e 00 00 00 00
       0.28867513 0.0 0.3333333 0.0
0000c0 aa aa aa 3e 00 00 00 00 00 00 00 00 00 00 00 00
       0.3333333 0.0 0.0 0.0
0000d0 00 00 00 00 00 00 00 00 00 00 00 00 00 00 00 00
       0.0 0.0 0.0 0.0
0000e0 00 00 00 00 00 00 00 00 00 00 00 00 00 00 00 00
       0.0 0.0 0.0 0.0
0000f0 00 00 00 00 00 00 00 00 00 00 00 00 00 00 00 00
       0.0 0.0 0.0 0.0
000100 00 00 00 00 00 00 00 00 00 00 00 00 3a cd 93 3e
       0.0 0.0 0.0 0.28867513
000110 00 00 00 00 aa aa aa 3e 00 00 00 00 aa aa aa 3e
       0.0 0.3333333 0.0 0.3333333
000120 00 00 00 00 00 00 00 00 00 00 00 00 00 00 00 00
       0.0 0.0 0.0 0.0
000130 00 00 00 00 00 00 00 00 00 00 00 00 00 00 00 00
       0.0 0.0 0.0 0.0
000140 00 00 00 00 00 00 00 00 00 00 00 00 00 00 00 00
       0.0 0.0 0.0 0.0
000150 00 00 00 00 00 00 00 00 00 00 00 00 00 00 00 00
       0.0 0.0 0.0 0.0
000160 00 00 00 00 00 00 00 00 aa aa aa 3e 00 00 00 00
       0.0 0.0 0.3333333 0.0
000170 aa aa aa 3e 00 00 00 00 aa aa aa 3e 00 00 00 00
       0.3333333 0.0 0.3333333 0.0
000180 00 00 00 00 00 00 00 00 00 00 00 00 00 00 00 00
       0.0 0.0 0.0 0.0
000190 00 00 00 00 00 00 00 00 00 00 00 00 00 00 00 00
       0.0 0.0 0.0 0.0
0001a0 00 00 00 00 00 00 00 00 00 00 00 00 00 00 00 00
       0.0 0.0 0.0 0.0
0001b0 00 00 00 00 00 00 00 00 00 00 00 00 00 00 00 00
       0.0 0.0 0.0 0.0
0001c0 00 00 00 00 aa aa aa 3e 00 00 00 00 aa aa aa 3e
       0.0 0.3333333 0.0 0.3333333
0001d0 00 00 00 00 aa aa aa 3e 00 00 00 00 00 00 00 00
       0.0 0.3333333 0.0 0.0
0001e0 00 00 00 00 00 00 00 00 00 00 00 00 00 00 00 00
       0.0 0.0 0.0 0.0
0001f0 00 00 00 00 00 00 00 00 00 00 00 00 00 00 00 00
       0.0 0.0 0.0 0.0
000200 00 00 00 00 00 00 00 00 00 00 00 00 00 00 00 00
       0.0 0.0 0.0 0.0
000210 00 00 00 00 00 00 00 00 00 00 00 00 00 00 00 00
       0.0 0.0 0.0 0.0
000220 aa aa aa 3e 00 00 00 00 aa aa aa 3e 00 00 00 00
       0.3333333 0.0 0.3333333 0.0
000230 aa aa aa 3e 00 00 00 00 00 00 00 00 00 00 00 00
       0.3333333 0.0 0.0 0.0
000240 00 00 00 00 00 00 00 00 00 00 00 00 00 00 00 00
       0.0 0.0 0.0 0.0
000250 00 00 00 00 00 00 00 00 00 00 00 00 00 00 00 00
       0.0 0.0 0.0 0.0
000260 00 00 00 00 00 00 00 00 00 00 00 00 00 00 00 00
       0.0 0.0 0.0 0.0
000270 00 00 00 00 00 00 00 00 00 00 00 00 aa aa aa 3e
       0.0 0.0 0.0 0.3333333
000280 00 00 00 00 aa aa aa 3e 00 00 00 00 aa aa aa 3e
       0.0 0.3333333 0.0 0.3333333
000290 00 00 00 00 00 00 00 00 00 00 00 00 00 00 00 00
       0.0 0.0 0.0 0.0
0002a0 00 00 00 00 00 00 00 00 00 00 00 00 00 00 00 00
       0.0 0.0 0.0 0.0
0002b0 00 00 00 00 00 00 00 00 00 00 00 00 00 00 00 00
       0.0 0.0 0.0 0.0
0002c0 00 00 00 00 00 00 00 00 00 00 00 00 00 00 00 00
       0.0 0.0 0.0 0.0
0002d0 00 00 00 00 00 00 00 00 aa aa aa 3e 00 00 00 00
       0.0 0.0 0.3333333 0.0
0002e0 aa aa aa 3e 00 00 00 00 eb 05 d1 3e 00 00 00 00
       0.3333333 0.0 0.40824828 0.0
0002f0 00 00 00 00 00 00 00 00 00 00 00 00 00 00 00 00
       0.0 0.0 0.0 0.0
000300 00 00 00 00 00 00 00 00 00 00 00 00 00 00 00 00
       0.0 0.0 0.0 0.0
000310 00 00 00 00 00 00 00 00 00 00 00 00 00 00 00 00
       0.0 0.0 0.0 0.0
000320 00 00 00 00 00 00 00 00 00 00 00 00 00 00 00 00
       0.0 0.0 0.0 0.0
000330 00 00 00 00 aa aa aa 3e 00 00 00 00 aa aa aa 3e
       0.0 0.3333333 0.0 0.3333333
000340 00 00 00 00 eb 05 d1 3e 00 00 00 00 00 00 00 00
       0.0 0.40824828 0.0 0.0
000350 00 00 00 00 00 00 00 00 00 00 00 00 00 00 00 00
       0.0 0.0 0.0 0.0
000360 00 00 00 00 00 00 00 00 00 00 00 00 00 00 00 00
       0.0 0.0 0.0 0.0
000370 00 00 00 00 00 00 00 00 00 00 00 00 00 00 00 00
       0.0 0.0 0.0 0.0
000380 00 00 00 00 00 00 00 00 00 00 00 00 00 00 00 00
       0.0 0.0 0.0 0.0
000390 eb 05 d1 3e 00 00 00 00 ff ff ff 3e 00 00 00 00
       0.40824828 0.0 0.49999997 0.0
0003a0 00 00 00 00 00 00 00 00 00 00 00 00 00 00 00 00
       0.0 0.0 0.0 0.0
0003b0 00 00 00 00 00 00 00 00 00 00 00 00 00 00 00 00
       0.0 0.0 0.0 0.0
0003c0 00 00 00 00 00 00 00 00 00 00 00 00 00 00 00 00
       0.0 0.0 0.0 0.0
0003d0 00 00 00 00 00 00 00 00 00 00 00 00 00 00 00 00
       0.0 0.0 0.0 0.0
0003e0 00 00 00 00 00 00 00 00 00 00 00 00 eb 05 d1 3e
       0.0 0.0 0.0 0.40824828
0003f0 00 00 00 00 ff ff ff 3e 00 00 00 00 00 00 00 00
       0.0 0.49999997 0.0 0.0

spatial_gcn.layers.2.linear.weight f4 [128, 64]
000000 e0 9a ff bb aa 1c 13 3d 73 2a 3d 3d 88 2b dc bd
       -0.007800445 0.035916008 0.04618306 -0.107504904
000010 d0 db 6f bd 42 b1 c4 bd d8 e6 8d 3d 56 74 fb 3d
       -0.05855924 -0.09604122 0.069287956 0.12278049
000020 67 e4 0b be a3 b3 d8 bd 3c 2d a6 3d 40 6f 84 bd
       -0.13661347 -0.10581138 0.081140965 -0.06466532
000030 ba fd 98 3d d1 52 40 be c5 90 06 3d e6 be e7 3d
       0.074702695 -0.18781592 0.032852907 0.11315708
000040 ce 22 ce bd 18 05 fa 3d b0 95 5b bd 5e 57 b3 3d
       -0.10065232 0.12208003 -0.05360955 0.08756898
000050 7b 75 05 3d 45 ca 33 be 29 0b 19 3d 80 f9 6f bb
       0.03258274 -0.17557628 0.03736416 -0.003661722
000060 a8 f0 e7 3c e6 2f d3 3d b6 37 91 3d b9 67 93 3c
       0.028312996 0.1031187 0.07090704 0.017993795
000070 70 1a 53 bc 34 61 d6 bd be 59 f2 3d 57 66 21 bd
       -0.012884721 -0.10467759 0.11833523 -0.03940424
000080 00 89 08 3b 90 05 50 3d 28 25 88 bd ea c2 21 be
       0.0020833611 0.050786555 -0.06647712 -0.1579701
000090 9a 60 a3 3d 4d c3 02 3e 58 6d 00 bd e2 2b b7 bd
       0.0797741 0.12769814 -0.03135428 -0.08943917
0000a0 be ef 3d 3d fb f5 65 bc 15 c4 a7 bd 2e 20 9e 3d
       0.046371214 -0.014035697 -0.081916966 0.077209815
0000b0 38 91 f3 bd 08 62 e9 bc d6 8c 6e bd 92 f6 be 3d
       -0.11892933 -0.028489128 -0.05823978 0.09324373
0000c0 05 18 07 be 5e 4d ca 3d c2 1f df 3d 98 b3 1e 3c
       -0.13192756 0.09878038 0.10894729 0.009686373
0000d0 b8 53 ef 3d b2 6e ed bd 7a 2e 7d bd 7a cc ed bd
       0.1168589 -0.11593379 -0.0618119 -0.116112664
0000e0 ca 3a ba bd b0 44 b5 bd 7c 2a be bd 57 33 43 bd
       -0.090932444 -0.08850992 -0.09285447 -0.047656383
0000f0 b1 cd a7 bb 04 20 a9 bd 56 ec 9c 3d b5 f3 e0 3c
       -0.005120956 -0.082580596 0.07662265 0.027459959
000100 f4 b0 b3 3d 89 4d dc ba ca 51 18 bd c8 c5 9b 3d
       0.087739855 -0.0016807775 -0.037187375 0.07606083
000110 d8 00 16 bd 9c 37 60 3d 50 0a 84 bc 30 bb 74 be
       -0.0366219 0.054740533 -0.016118199 -0.23899531
000120 24 37 4f 3d 56 6c 73 bd 98 ec d3 3c 44 d2 f6 bd
       0.050589696 -0.05942949 0.025869653 -0.12051824
000130 ac cb 1c 3d 95 ec 1b be 94 43 d5 3c 58 bb ac 3d
       0.038280174 -0.15226968 0.0260332 0.084341705
000140 56 8d b3 3d 96 bc c7 3d e8 2f 9f bc e0 38 2f bd
       0.08767192 0.09752767 -0.019432023 -0.04277885
000150 5c 5f 94 3d 9a f0 3d be 4f 6c 99 bd c0 fc 03 bb
       0.07244751 -0.18548813 -0.07491361 -0.0020139664
000160 42 fe b0 3d a4 9b 45 bd 44 46 36 3d a9 db c8 bd
       0.08642246 -0.048244134 0.044500604 -0.09807522
000170 39 cc 3d 3d 39 75 33 ba 28 3e 4a bd 02 e0 38 be
       0.04633734 -0.00068457756 -0.049375683 -0.18054202
000180 28 53 90 3c ec cf 7f 3d 30 df cd bc 3e ce 24 bc
       0.017617777 0.06245415 -0.025130838 -0.010058938
000190 60 59 b0 b9 93 61 8b bd 1c 27 e1 bd 70 54 cc bd
       -0.00033635926 -0.0680572 -0.10993788 -0.09977043
0001a0 0d 48 73 be 76 9f 0d bd 28 bc 65 bc de b4 bc 3d
       -0.23757954 -0.034575902 -0.014021911 0.09214185
0001b0 c0 46 41 bc 70 88 f1 3d 1a ee 7a 3c 54 c6 dd 3d
       -0.011796653 0.117936015 0.015315557 0.10828844
0001c0 f0 9f 8a bc e4 bf 19 3d f1 e2 32 be e0 8d 8f 3c
       -0.016921967 0.037536517 -0.17469384 0.017523706
0001d0 e6 e6 d3 bd 84 ea 28 bd 66 c2 da 3c 00 df b3 3a
       -0.10346775 -0.041239277 0.026704025 0.0013723075
0001e0 ef d9 53 bd 52 96 e4 bd 90 2d d0 bc 11 67 41 3c
       -0.05172151 -0.11161484 -0.02541235 0.011804358
0001f0 d3 5e de bd e0 b3 cd 3c ac 21 e5 bd cd 25 0e bc
       -0.1085793 0.025110185 -0.11188063 -0.008676005
000200 7a 26 ce bd de 8b 02 be 97 62 d2 3d 90 3e 0e bd
       -0.100659326 -0.12748668 0.10272711 -0.034727633
000210 98 e0 04 bd e0 ed 9a bd 40 93 c4 bc 4c c3 90 3e
       -0.03244075 -0.07564902 -0.023995996 0.28274
000220 ca 67 3b be e1 72 f7 3d 08 46 ab 3c 34 13 8d bd
       -0.18301311 0.12082458 0.020907417 -0.06888428
000230 ba 95 9e 3c 36 1f 04 3e bf 17 1a 3d ce 01 8f bd
       0.019358505 0.12902531 0.037620302 -0.06982766
000240 6a 66 c4 bd 9e 5f ba 3d a8 cf f2 bc 9c 9f 8c 3d
       -0.095898464 0.09100269 -0.029640034 0.068663806
000250 7e ea 0d 3d 08 93 1c 3d 21 88 a3 bd 2c 8d 6b bd
       0.034647457 0.038226157 -0.07984949 -0.05750768
000260 3c 87 6b 3d 46 fb eb 3d b8 b1 8c bd df 79 da bc
       0.057502016 0.11522536 -0.06869835 -0.02666944
000270 90 4d 0a bd 66 aa e5 bd bc af 76 3d 9d 88 f3 3b
       -0.033765376 -0.112141415 0.060226187 0.007432057
000280 a8 c6 f3 bc 6a c8 a0 bd 54 34 56 bd 56 f6 b5 3d
       -0.029757813 -0.07850726 -0.052295998 0.088848755
000290 60 db ba bd 49 89 a4 3c c4 17 81 3d ae 7e aa bd
       -0.09123874 0.020084994 0.06303361 -0.083249435
0002a0 3e d5 3a 3e a0 6d 0b 3e 19 b6 1d bd f0 15 5c bc
       0.18245408 0.13616037 -0.03850374 -0.013432965
0002b0 1c 16 af bd c0 cb a0 3d 30 f4 b5 bd ec ae d7 3d
       -0.08549139 0.07851362 -0.08884466 0.105314106
0002c0 f6 2f 04 3e 1c 49 56 bd b2 ca df 3d 39 fd 99 3d
       0.1290892 -0.052315816 0.10927333 0.075190015
0002d0 9a c3 ad 3d 12 dd fc bd 78 e1 85 bd 70 a4 1f bc
       0.08484574 -0.12346853 -0.065371454 -0.009743795
0002e0 ab f4 d2 bd 44 57 9a 3d 02 42 ef 3d b2 26 17 be
       -0.10300573 0.07536176 0.11682512 -0.14760855
0002f0 a6 49 db bd 40 62 38 3b a4 bb d8 bd 35 bc 98 3d
       -0.10707407 0.0028134733 -0.105826646 0.07457773
000300 9e cf a3 3d 13 a0 03 be b0 e6 91 bd 2c 11 48 bd
       0.07998584 -0.12854032 -0.07124078 -0.0488445
000310 e4 5b ae 3d a4 73 3f bd 68 b4 39 bd d1 8c 25 bd
       0.085136205 -0.046741143 -0.045338064 -0.040417496
000320 d6 89 56 3e 1e 43 a0 bd 46 59 aa 3d 02 02 f1 bd
       0.20951018 -0.078253016 0.08317809 -0.11767961
000330 a9 9e 29 bc 99 84 14 3d 5b 54 a1 bb 98 3b ce 3c
       -0.010352769 0.036259267 -0.004923386 0.0251749
000340 8c 46 e3 3d b0 4c f5 bc 38 50 c4 bd 22 9c 80 bd
       0.1109744 -0.029943794 -0.09585613 -0.0627978
000350 85 38 5d 3d 59 d3 f1 3d ef 91 e3 ba 96 d7 cc bd
       0.05400898 0.118078895 -0.0017362217 -0.10002057
000360 3a 08 ee bd 00 9d 42 3e a0 d1 99 3c 83 1f 16 3d
       -0.11622663 0.19005203 0.018776715 0.036651146
000370 f2 1f 89 3c 49 62 f3 bd 60 2b 9e bc 29 94 4d 3e
       0.016738866 -0.11883981 -0.019307792 0.2007605
000380 16 84 e6 3d 40 fe 27 bc a4 e9 f3 bd 54 0b f4 bc
       0.11255662 -0.010253489 -0.11909798 -0.029790558
000390 b3 6b 41 bd 48 c2 b9 3d b0 ae 80 3d 3a 8a b7 3d
       -0.04722185 0.09070259 0.06283319 0.089619115
0003a0 01 3a 18 3e f1 b5 be 3c 47 c4 b0 3d b2 95 e0 3d
       0.14865877 0.023280116 0.08631187 0.10966052
0003b0 d4 ff 62 3d 50 90 65 3c 94 48 55 bd b0 72 f1 bc
       0.055419758 0.014011458 -0.05207117 -0.029473633
0003c0 73 28 09 3e 1c da ba 3d 87 65 e2 3d 91 d7 da 3c
       0.13394336 0.09123632 0.11054521 0.026714118
0003d0 c0 31 ae 3d 8e b1 b0 bd 6c d3 3b 3d 14 de a3 3d
       0.08505583 -0.08627616 0.045855924 0.080013424
0003e0 b7 9e f2 bd 58 6e 8f bc 78 f0 6c bd 64 1f bd 3c
       -0.11846679 -0.01750867 -0.057846516 0.023086257
0003f0 a4 ee d5 bc 80 34 4c 3d 5e ca a6 bd 6e e2 3d bd
       -0.02611477 0.049854755 -0.08144067 -0.04635852

spatial_gcn.layers.2.linear.bias f4 [128]
000000 5d 5d 7e 3d 23 81 09 bd e5 3f 59 3d 06 a0 79 bd
       0.062100757 -0.03357042 0.05303945 -0.060943626
000010 24 ef 47 3d c5 dd 49 bb 85 55 c4 bb af 5e 95 3d
       0.048812047 -0.003080235 -0.00599164 0.0729345
000020 21 e8 16 3d d4 32 62 bd 78 08 e7 bc 36 6d 05 3d
       0.03684247 -0.055224255 -0.02820228 0.032574855
000030 78 8a 77 bd 37 e0 c2 bb 95 2a 1b bc 53 7a 99 3d
       -0.06043479 -0.0059471386 -0.009470602 0.074940346
000040 9c 51 ad bc 29 5d cd bd 7c 9c 97 3d 66 96 27 3d
       -0.021157078 -0.100275345 0.07402894 0.040914916
000050 ef 2e 8b 3d 93 e2 a0 ba c7 00 ef bd 39 09 30 3d
       0.06796061 -0.0012274556 -0.1167007 0.042977545
000060 a9 7a 3f bd f9 d2 b6 3c b2 ff d7 3d 0b 66 2e bd
       -0.046747837 0.022317396 0.10546817 -0.042577785
000070 0f f9 81 bd d6 60 93 3d 20 ef 76 3d 50 52 0d bd
       -0.06346332 0.07196204 0.06028664 -0.034502327
000080 57 98 e0 3c 24 ab f2 3d 96 b9 6a 3d af a6 d3 bc
       0.027416391 0.11849049 0.057305895 -0.025836317
000090 02 c5 9f bc 2e a7 20 3d a8 df 57 3c 82 22 a1 bb
       -0.01950312 0.039221935 0.013175882 -0.0049174437
0000a0 89 7c c7 3c 66 74 70 3d 0b a8 15 bc 1d 16 91 3c
       0.024351375 0.058704756 -0.009134303 0.01771074
0000b0 59 df 41 3d 4c d6 78 3c d0 eb fc bc f4 06 c3 3d
       0.04733214 0.015187811 -0.030874163 0.095228106
0000c0 31 9b 05 3c d8 55 1a bd 57 58 99 3c 47 83 49 3d
       0.008154676 -0.037679523 0.018718882 0.04919746
0000d0 67 2a bb 3d fa 06 81 ba 32 45 7c bd 06 f2 c4 bc
       0.09138947 -0.0009843998 -0.061589427 -0.024041187
0000e0 d1 4c 0b bd e8 e3 84 3d bb 00 64 3c 8a f9 e4 3d
       -0.034008805 0.06488782 0.01391619 0.11180408
0000f0 a4 6c 7f bc dd 2e e3 bd 54 7f b3 3d 96 ea 44 bd
       -0.015589867 -0.11092923 0.0876452 -0.04807528
000100 1b fc a2 bd 97 a6 04 3c 87 06 3f 3d b1 5c 96 bd
       -0.079582416 0.008096359 0.046637084 -0.07341898
000110 6a c4 d8 3c e0 9c 78 3d 50 07 70 bc b5 c4 8c bd
       0.026460845 0.060696483 -0.014650181 -0.068734564
000120 b2 5a fe bc 75 cc 4a 3c 8d 1d a5 3c e5 db 2e bd
       -0.031049106 0.012377848 0.020155692 -0.042690177
000130 b1 b7 4e 3d 4f 9b 01 3c 0c 14 1e 3d f4 c3 bb 3c
       0.05046815 0.007910564 0.038593337 0.022920586
000140 0c 12 2c bd 8b 3a 9e bd 55 fa c5 bd af d5 9f 3c
       -0.0420094 -0.0772601 -0.09666888 0.019511072
000150 a5 ba 03 3e 61 5e 5d 3d 5e bc 48 bb c7 8e a8 3d
       0.12864168 0.054045085 -0.0030629854 0.082303576
000160 64 72 79 bd 89 9e 51 bc ab f9 e1 3d ed 27 d9 3d
       -0.060900107 -0.012794145 0.110339485 0.10603318
000170 f1 c3 51 3d 20 78 93 3d 62 e4 2a bd 63 d0 81 3d
       0.051212255 0.072006464 -0.04172171 0.06338575
000180 62 9c 73 3c 1c 93 40 3b 59 a2 68 3d d7 41 80 3d
       0.014868828 0.002938456 0.05679545 0.06262558
000190 be 6b 58 bc 2b 1f 88 bd 16 49 92 3c 3f c2 02 bd
       -0.0132092815 -0.0664657 0.017857116 -0.03192353
0001a0 2f b8 ae 3d 72 7d 83 3d e3 a6 aa 3d 6d c8 7b 3c
       0.08531224 0.06420411 0.08332612 0.015367609
0001b0 1b 66 54 bd 65 2e 22 bd ad 64 74 3d ea 35 f4 3c
       -0.051855188 -0.039595027 0.059666324 0.029810864
0001c0 ec 62 9d bc 49 ac 2c 3c 75 3b 66 bb d3 22 36 3d
       -0.019212209 0.010539123 -0.0035130654 0.044466805
0001d0 26 46 88 3d a0 97 cf bb da 74 58 bd f4 dd 73 3d
       0.06654005 -0.006335214 -0.052845813 0.059537843
0001e0 dc d0 dd bd cb 0a d8 bd 4e a1 ce 3d 18 84 d0 bc
       -0.108308524 -0.105489336 0.1008936 -0.025453612
0001f0 7f 37 9c bd cd 84 bd bd 6f 79 39 bd 2b ed 84 bd
       -0.076277725 -0.09253845 -0.045281824 -0.06490549

temporal_net.0.net.0.weight f4 [128, 128, 3]
000000 7e 5c 99 bb 5d 39 f6 bc c3 5f fa bb 74 83 2f 3c
       -0.0046802154 -0.03005665 -0.00764081 0.010712493
000010 cb 06 15 3d 86 6b dd 3b ed 97 1b bd 41 fb da bd
       0.03638343 0.0067572026 -0.037986685 -0.10692454
000020 fe c9 4d bd f9 f3 73 3d b7 d1 69 bc a6 5b 30 39
       -0.050241463 0.059558842 -0.014271191 0.0001681881
000030 fd e8 5c bc 36 86 4c 3c 35 16 0c 3d 80 39 9b bc
       -0.013483283 0.01248317 0.034200866 -0.018948317
000040 48 0d 09 bd f6 ea 8c bd 2b 4e e4 bd 8f 8f 51 bd
       -0.03345993 -0.06880753 -0.11147722 -0.0511623
000050 57 6a db bd f8 56 a2 3c 4b fc 3a 3d 65 23 9c bb
       -0.10713642 0.01981686 0.04565076 -0.0047649615
000060 b2 0f b4 3c ef 90 83 3c aa 3a 35 3c 16 a7 c0 bc
       0.02198014 0.01606032 0.01106135 -0.023517173
000070 20 d8 39 bc 3b dc 3d 3d e9 83 3a 3c 46 28 19 3c
       -0.011343032 0.046352606 0.011383989 0.009347981
000080 9f 48 23 bd e9 88 74 bd 20 c9 a3 bc a4 a1 dd bc
       -0.03986418 -0.05970088 -0.019993365 -0.027054615
000090 96 d5 61 bc 39 d6 23 3c 7a 77 aa 3b c7 d2 1f 3c
       -0.013783833 0.009999805 0.005202231 0.009754843
0000a0 98 d7 66 bc 86 a5 02 3d ef 58 a8 bc 91 ba b4 bc
       -0.0140894875 0.031896137 -0.02055022 -0.022061618
0000b0 9c ad 82 3c c2 d4 09 3d 86 81 b5 bc 6b 10 2e 3c
       0.015951924 0.033650167 -0.022156488 0.010624032
0000c0 65 7f ce 3c 04 fa 65 3d 64 84 75 3d fa 6d 43 3d
       0.02520723 0.056146637 0.05994071 0.047712304
0000d0 35 a4 8b bd e3 74 71 bd 09 55 f5 bc 77 9e 22 bd
       -0.068184294 -0.058949362 -0.029947774 -0.039701905
0000e0 96 46 07 bd 73 04 33 bc 3b 1d a5 bd a5 45 2e bd
       -0.0330263 -0.010926354 -0.08062216 -0.042546887
0000f0 67 6e 23 bd 4a af ba 3c a2 a9 4c 3d ee 74 7d 3d
       -0.03990021 0.022788662 0.049966462 0.06187909
000100 93 9e 3d 3b be d4 50 bc 1f d6 0c 3d 24 41 64 3d
       0.002893363 -0.012746034 0.03438389 0.055726185
000110 cf 6a f3 bb 99 9b 05 3d a0 f3 a6 ba 45 97 bb bc
       -0.007428504 0.032619093 -0.0012737401 -0.02289928
000120 62 ce 6c 3d de b6 b8 bb 5e 58 90 3c 96 47 ce bc
       0.05781401 -0.005637034 0.017620262 -0.02518062
000130 6b e6 87 3c ca b3 d6 3c ce ca 90 3b a5 28 a6 bc
       0.016589364 0.026208777 0.0044187075 -0.020283053
000140 b7 ce 41 3c f2 73 ec bc 19 97 b3 bc c4 5a 58 3b
       0.01182907 -0.02886388 -0.021922635 0.0033013085
000150 85 82 67 bd cc 30 9f 3b c8 13 08 3a 51 8c 1b bd
       -0.056520957 0.004858112 0.0005190936 -0.037975613
000160 ef 54 20 bd 6e af 58 bd 6c 0a 9e 3d 3d cd f1 3d
       -0.0391435 -0.052901678 0.077168316 0.11806724
000170 6d b9 dc 3d 94 fc c2 bc 81 e4 34 bd 60 1c 78 bc
       0.10777555 -0.02380208 -0.04416323 -0.015143484
000180 f5 01 36 bc e4 ef 1e 3d ae 4b 81 ba c0 79 1e 3c
       -0.011108865 0.038802996 -0.0009864473 0.009672582
000190 94 45 96 3d 5e 4a 25 3d 44 01 88 bd da e7 ec 3a
       0.0733749 0.040354125 -0.066408664 0.0018074468
0001a0 10 31 9c bc b4 f1 1a 3c 52 85 a2 3c 46 de 2a 3d
       -0.019066364 0.009457041 0.019838963 0.041715883
0001b0 3a 6b 12 3d 2e e0 f1 3c 22 27 ac 3c 8d 18 7a bd
       0.03574679 0.029525843 0.021014754 -0.06105857
0001c0 98 08 0a 3c e3 9d e8 bc d4 4a 28 bd 56 64 ad 3c
       0.0084249005 -0.028395599 -0.041086987 0.021166008
0001d0 cf d2 32 bd a6 a7 2b bc 95 98 7b bd 5c 52 06 bc
       -0.043658074 -0.010476982 -0.06142481 -0.008198347
0001e0 81 ae b1 bc fb f7 06 3d b0 2b 0d 3d 32 7f 84 bb
       -0.021689655 0.032951336 0.03446549 -0.004043483
0001f0 a5 5b 96 bc 27 24 02 bd e0 69 3d 3c c5 73 24 bb
       -0.018354246 -0.03177276 0.011560887 -0.0025093418
000200 fc c4 d6 3b 3c 8a 5d bd 47 09 ac 3b e8 1d 16 bd
       0.006554244 -0.05408691 0.0052501294 -0.036649615
000210 1a b9 61 3d 16 0f 69 bb 80 f9 a7 bc ef f3 7e bd
       0.055108167 -0.003556197 -0.020504713 -0.062244352
000220 75 e8 ab bd 1b ba 5f bd 2f 95 d2 bd 7f 3b a3 bd
       -0.08393947 -0.054620843 -0.10282361 -0.07970332
000230 04 be ac bc 70 a3 84 3d d7 30 ef 3c 66 12 3e 3d
       -0.0210867 0.06476486 0.029198093 0.046404265
000240 a9 37 04 3d eb 18 32 bd 72 8d ee 3c 54 76 49 3d
       0.032279644 -0.043480795 0.02912018 0.049185112
000250 ee fc 4c 3d 35 4a 1b 3d 63 f1 a7 bd b5 f3 8a bd
       0.0500459 0.037912566 -0.08200338 -0.06784765
000260 4d 6c 39 bd 09 7a a2 3d d6 39 72 bc 3f e4 17 3d
       -0.0452693 0.079334326 -0.014784297 0.037082907
000270 d6 79 85 bc 18 a4 11 bc 80 d0 08 bc 21 b2 ce bc
       -0.016293447 -0.008889221 -0.0083504915 -0.025231423
000280 04 c6 05 3d 31 9d 0e 3d e4 6f b0 3b e1 61 f3 bb
       0.032659546 0.03481788 0.005384432 -0.0074274396
000290 5d 2c 29 bb 57 f7 18 bc 31 61 d5 3c 8a b8 5c 3d
       -0.0025813796 -0.009336314 0.026047321 0.053886928
0002a0 92 8e e9 3c b5 48 b3 ba bc 4d a5 3d 43 81 80 bd
       0.028510366 -0.0013678285 0.08071467 -0.06274655
0002b0 20 1e 83 bd 8a d1 b5 ba 50 cd 03 bd 71 ef d7 3c
       -0.0640223 -0.0013871652 -0.032178223 0.026359292
0002c0 e4 07 11 3d b4 7d 0f 3d 2e 0b ed bc c4 9c 15 3d
       0.035407916 0.03503199 -0.028935995 0.036526456
0002d0 c1 22 17 3d 36 18 19 bc ea 0e a9 ba 73 24 ea 3b
       0.03689838 -0.009344151 -0.0012898121 0.0071454584
0002e0 bb 96 8a ba 19 b3 a3 3b 99 01 b2 3c 6a c2 54 bd
       -0.0010573486 0.0049957153 0.021729277 -0.05194322
0002f0 d7 1b ee 3c 94 c8 f7 3b af cb 2e 3d aa 0f 54 3d
       0.02906601 0.0075617526 0.042674717 0.05177275
000300 44 8a 06 3d 10 3e 19 bc 45 fa d3 bc 3c a9 b6 3c
       0.032846704 -0.009353176 -0.025876174 0.022297494
000310 c0 07 fb 3c ef 18 2d bd 53 7d 9c bc e6 82 e8 3c
       0.030643344 -0.042260107 -0.019102728 0.02838273
000320 f0 b1 39 3d 11 72 07 3d 9a 9c d1 3b 60 25 14 3d
       0.04533571 0.033067767 0.006396842 0.036168456
000330 7a 54 98 bb c6 d4 62 b9 7e d3 0d bd 84 b3 51 bc
       -0.0046487423 -0.00021632304 -0.034625523 -0.0127991475
000340 2e 98 2e bd 4e 85 a0 bd 17 fe 9e 3d a7 8f 94 3c
       -0.0426256 -0.07837926 0.077633075 0.018134905
000350 57 26 b8 3d 5d 89 9f 3c 21 25 e1 bc cf c9 08 3d
       0.08991688 0.01947468 -0.027483525 0.033395585
000360 3c a2 48 bb ed 24 b6 bc 89 71 24 bd c4 6c 6b 3d
       -0.0030614277 -0.022234404 -0.040147338 0.057476774
000370 29 37 a3 bc 41 7a 57 3d 49 1f 2b bc eb bf 75 3d
       -0.019923763 0.052606825 -0.010444471 0.05999748
000380 05 3e 4d 3d ce cb eb 3c 94 74 20 bc 63 e8 b1 3b
       0.050107975 0.028783705 -0.009793419 0.005429314
000390 de 79 47 3d f8 06 61 3b 2f dc 3d 3d ae 6b fd bc
       0.048700206 0.003433643 0.04635256 -0.030935135
0003a0 40 5a a4 bc 76 18 13 bb 3d b4 52 3d be 51 46 3d
       -0.020062566 -0.0022445 0.05144142 0.0484178
0003b0 76 2a eb bb 98 62 42 ba f3 52 62 3d ac de 5a 3d
       -0.0071766926 -0.00074152043 0.055254888 0.053435013
0003c0 7a 0a bf 3c f5 30 b5 3c 83 d9 9a bc dc 02 14 3d
       0.023320425 0.022118071 -0.018902546 0.03613554
0003d0 5f f1 15 3d 27 cc da bb 9a 56 21 bc 10 57 b9 3c
       0.036607143 -0.006677169 -0.009847308 0.022624522
0003e0 d4 00 0c 3c ea 91 63 bb 20 ec 3b 3c 82 17 3d bd
       0.008545119 -0.0034724423 0.011469871 -0.046164997
0003f0 b7 44 26 bd 2c 88 a0 bd 31 c5 79 bd 37 3c 02 bd
       -0.040592875 -0.07838473 -0.060979072 -0.031795707

temporal_net.0.net.0.bias f4 [128]
000000 57 d7 43 bd d8 e5 ea 3c f0 ff 0d 3c 58 bd c6 bd
       -0.047812786 0.028674051 0.008666977 -0.09704083
000010 48 c2 b6 bb 70 b7 96 3b 9a f3 1c 3d ac 34 00 bd
       -0.0055773593 0.004599504 0.038318254 -0.03130023
000020 1a 80 20 3d 7e 99 f1 3d c5 bc 35 3d 66 bc 28 bd
       0.039184667 0.117968544 0.044369478 -0.041195296
000030 e3 8e b1 bb 5c ac 43 3c 2a ef 37 b9 77 bf 24 3d
       -0.0054186448 0.011942949 -0.00017541336 0.040221658
000040 31 1d aa bb f7 e1 89 bb 65 82 fa bc 2d c0 42 bc
       -0.005191468 -0.0042078453 -0.030579755 -0.011886639
000050 72 9e de 3c 0f 78 a0 3b 9d 03 1f 3c 41 01 a7 3c
       0.027175162 0.0048971246 0.009705451 0.02038634
000060 36 10 54 bd 4a 9e 29 bc 2b 3b f5 bc 15 53 7e bd
       -0.051773272 -0.01035268 -0.02993544 -0.062090952
000070 d6 62 1f 3d 0a b3 4c bc 4b 6a aa 3b b8 47 5c 3d
       0.038912617 -0.012493858 0.0052006594 0.053779334
000080 72 5f a5 3c 7b 5b 88 3d de 0c af bd 02 f4 88 38
       0.020187113 0.066580735 -0.08547376 6.530435e-05
000090 11 b9 6a 3d 29 cd 1c 3d 91 27 79 3c ef 28 35 bd
       0.0573054 0.038281593 0.015207187 -0.04422849
0000a0 96 4c be 3a c2 08 48 bd 23 49 15 3c ab d8 4b 3d
       0.0014518674 -0.048836477 0.009111675 0.049767178
0000b0 2f 7b 7e 3c 22 b8 fa 3c 15 c3 e7 bc 2d 14 26 3d
       0.015532299 0.03060538 -0.028291265 0.040546585
0000c0 92 b6 28 3c b2 4d e7 3c 41 46 9a bd 23 96 b4 bc
       0.010297434 0.02823529 -0.07532931 -0.022044247
0000d0 08 1c 13 3d 7e ff 10 3d e9 53 00 3d c7 79 8c bc
       0.035915405 0.035399906 0.031330023 -0.017147912
0000e0 78 7c 4b 3d 2e 03 9b 3c 95 51 29 bc 3c 6b 5b 3d
       0.04967925 0.018922415 -0.010334392 0.053569064
0000f0 ff b2 bb bb 35 a9 2e 3c 73 19 0b 3d ae fd ef bc
       -0.005728125 0.010660459 0.033959817 -0.029295769
000100 51 00 a3 bb 89 a9 b8 3c 8c 29 02 bd 1c c3 9d bc
       -0.004974403 0.022541778 -0.031777903 -0.019258074
000110 ea f1 4a 3c a0 d6 44 3d 20 d0 b0 3c a4 55 55 bd
       0.012386778 0.048056245 0.021583617 -0.052083626
000120 b7 7d b7 bc 96 15 02 3d 00 20 17 3d 75 cd 01 3d
       -0.022398813 0.031758867 0.036895752 0.03169008
000130 15 98 25 3d 4a 4b 11 bd 79 ba 14 bd eb 1a 9a bd
       0.04042824 -0.035472192 -0.036310647 -0.075246654
000140 2e 3f 85 3d 3a 06 dd 3c 0b 74 04 bd 7b de b4 3c
       0.06506191 0.026980508 -0.03233723 0.022078743
000150 a8 bf b6 3c d4 c1 29 3a 1f 70 15 3d dd 89 38 3d
       0.022308186 0.0006475721 0.03648388 0.04505335
000160 3f 2b d9 bc cc 15 03 3c f3 da ac bc 4a 54 b4 3c
       -0.02650988 0.008000802 -0.021100497 0.022012848
000170 b0 72 0b bd 4e 6f cd 3d 9d 11 1d 3d 8d 24 ef 3b
       -0.03404492 0.10030995 0.038346875 0.0072980584
000180 6c 4a 25 bd cc a9 52 3c e4 14 07 bd a0 3d 07 3d
       -0.040354177 0.012857866 -0.032978907 0.033017755
000190 fb a7 66 bd 2e 98 bd bc d2 05 f3 3b d4 dd 1f 3d
       -0.056312542 -0.023143854 0.0074164653 0.03902991
0001a0 13 9d 3d 3d bd 40 fe 3c a7 5b 86 3d f0 64 0b bd
       0.046292376 0.031036729 0.0656045 -0.03403181
0001b0 8c f8 f5 bb 18 32 ef bc d1 c4 7f bc 59 36 fe bc
       -0.0075064357 -0.029198691 -0.0156108895 -0.031031774
0001c0 d7 b6 5f 3c 24 0e fe 3c 89 ea 03 bd 5d 69 8d 3c
       0.013654432 0.031012602 -0.032206092 0.017262155
0001d0 d9 a3 4a 3d c9 bd 87 3d aa af 71 3c 7e 8d 4c bd
       0.049472664 0.066279955 0.014751354 -0.049939625
0001e0 fd 85 b9 3c b0 78 fd bc 03 a1 85 3d f3 de 45 3d
       0.022646898 -0.030941337 0.06524851 0.048308324
0001f0 af 90 91 3c 4f de ad 3c 5d e1 38 bd a7 27 3e 3d
       0.017769186 0.021224169 -0.0451368 0.046424534

temporal_net.0.net.1.weight f4 [128]
000000 d9 79 7f 3f 57 08 75 3f e0 eb 6d 3f 99 a7 81 3f
       0.997953 0.9571585 0.9293804 1.0129272
000010 50 aa 81 3f 85 a5 79 3f 5c da 81 3f f3 a9 73 3f
       1.01301 0.9751819 1.0144763 0.95181197
000020 9b c1 79 3f 34 35 84 3f 72 99 85 3f 7f 44 7a 3f
       0.97561044 1.0328736 1.0437453 0.97760767
000030 bd e7 72 3f 99 93 7b 3f c4 a4 81 3f e5 d0 65 3f
       0.94884855 0.9827209 1.0128407 0.8977187
000040 45 b8 82 3f b1 47 74 3f aa 49 7b 3f 60 48 81 3f
       1.0212485 0.9542189 0.9815928 1.0100212
000050 cf 27 80 3f de 73 7d 3f 03 fa 8b 3f b6 9e 74 3f
       1.0012149 0.99004924 1.0935673 0.95554674
000060 2a d9 80 3f fb d8 5a 3f 54 1e 69 3f 2d 20 81 3f
       1.0066273 0.85487336 0.910619 1.0087944
000070 0e 79 7e 3f 14 aa 7f 3f a2 c4 6b 3f 51 06 78 3f
       0.99403465 0.99868894 0.9209691 0.9688464
000080 51 cf 72 3f b4 81 77 3f 8a 23 81 3f 9a 78 7c 3f
       0.9484759 0.96682286 1.0088971 0.98621523
000090 f1 10 7e 3f 98 16 71 3f 43 4e 78 3f c1 db 81 3f
       0.992446 0.941751 0.9699442 1.0145189
0000a0 d2 55 80 3f 6e 2d 81 3f 38 09 6e 3f eb 29 75 3f
       1.002619 1.0091989 0.92982817 0.95767087
0000b0 6a d7 6c 3f d1 e2 71 3f 53 de 81 3f 63 8e 84 3f
       0.92516196 0.9448672 1.0145973 1.0355953
0000c0 a6 78 6e 3f 59 e6 85 3f 7d d5 85 3f 5b bc 7a 3f
       0.93152845 1.0460922 1.0455776 0.9794366
0000d0 af 6c 85 3f 93 8c 7a 3f 61 da 66 3f 90 7b 81 3f
       1.0423793 0.9787075 0.9017697 1.0115833
0000e0 5e b8 85 3f a3 9c 6d 3f 98 43 7f 3f e7 31 8d 3f
       1.0446889 0.92817134 0.99712515 1.1030854
0000f0 a8 eb 5d 3f 67 f4 82 3f de 69 84 3f e9 3f 86 3f
       0.8668771 1.0230836 1.0344808 1.0488254
000100 f0 bf 69 3f cf 11 76 3f 87 74 7d 3f ce bc 79 3f
       0.913085 0.96120924 0.9900593 0.9755372
000110 5d 49 79 3f e6 de 67 3f f0 97 6e 3f b6 f6 75 3f
       0.9737757 0.9057449 0.9320059 0.96079576
000120 bc 1f 6d 3f 22 d2 7f 3f 4c de 6e 3f 7f 4a 71 3f
       0.9262655 0.9993001 0.9330795 0.94254297
000130 c7 04 69 3f 81 0d 80 3f 97 41 8c 3f 6c 49 7f 3f
       0.91022915 1.0004121 1.0957516 0.9972141
000140 85 2b 75 3f ba 8f 6f 3f de dc 79 3f 86 9f 81 3f
       0.9576953 0.93578684 0.9760264 1.0126808
000150 77 a6 67 3f 11 17 7a 3f cd 70 68 3f f9 8e 73 3f
       0.9048838 0.97691447 0.9079712 0.95140034
000160 2b 7c 87 3f 29 e3 6f 3f d7 99 63 3f 4d 9c 72 3f
       1.0584768 0.93705994 0.88906616 0.94769746
000170 32 7f 6d 3f 19 1f 7c 3f 7f 9a 69 3f 94 f3 80 3f
       0.9277221 0.9848495 0.9125137 1.0074334
000180 79 6a 76 3f 3a 3d 77 3f 36 fa 69 3f 69 44 8c 3f
       0.96256214 0.965778 0.91397417 1.0958377
000190 d5 a5 76 3f b0 5e 5f 3f 30 5a 7b 3f a4 a7 68 3f
       0.9634679 0.87253857 0.9818449 0.908808
0001a0 79 7a 74 3f a6 80 6c 3f 57 17 88 3f ac 4b 72 3f
       0.9549938 0.923838 1.0632123 0.94646716
0001b0 cc 2b 70 3f d9 36 7d 3f ed f9 7f 3f d3 ba 78 3f
       0.9381683 0.98911816 0.9999073 0.9716007
0001c0 7c f3 7a 3f 21 8d 7a 3f 2c e0 86 3f dc 72 83 3f
       0.9802778 0.97871596 1.0537162 1.0269427
0001d0 16 b1 88 3f 66 bf 8b 3f b7 3f 8a 3f b1 a5 75 3f
       1.0679042 1.0917785 1.0800694 0.9595595
0001e0 e9 84 6a 3f 37 f9 70 3f 03 6c 82 3f 84 f1 6e 3f
       0.91609055 0.9413027 1.0189213 0.93337274
0001f0 d6 13 82 3f 80 04 7d 3f 36 b1 75 3f bb cf 7e 3f
       1.0162303 0.9883499 0.9597353 0.9953572

temporal_net.0.net.1.bias f4 [128]
000000 50 8f 96 3c ac be 22 bd ae 6c b7 bc ed 96 1b 3d
       0.018378884 -0.03973262 -0.02239069 0.03798573
000010 b9 5f da bc 4d 01 81 bd 8a ea 4f 3c 17 b1 2b bc
       -0.026656972 -0.06299076 0.012690196 -0.010479233
000020 2f 70 03 bd c2 31 3f bc d5 ac ae bd ee 9c 33 bc
       -0.03208941 -0.011669578 -0.08529059 -0.010962708
000030 61 7d 82 bd 0d 0e 4c bd ee 4b bd bc cf 7b b0 bd
       -0.063715704 -0.049818087 -0.023107495 -0.086173646
000040 61 b2 d6 3c 0d 46 75 bd b0 fb 21 bc 7e e1 e9 3b
       0.026208105 -0.05988126 -0.009886667 0.0071374765
000050 95 4a ac 3c dd 63 bd 3c f6 1f 99 3d ef f2 ca bc
       0.021031657 0.023118908 0.07476799 -0.024774043
000060 2c 97 e9 39 ab 95 df bd 70 7e 8f bd bb 6c 02 bc
       0.00044553855 -0.10917219 -0.07006538 -0.007960494
000070 54 30 6a bc 19 2d 05 3c 92 31 31 bd 67 76 95 bc
       -0.014293749 0.008128428 -0.043260165 -0.018244935
000080 b7 a8 3e bd a1 0d 2f bd 32 58 01 3c fa 50 f6 bc
       -0.046547618 -0.042737607 0.007894563 -0.03006791
000090 0e d4 6e bc bf 24 35 ba 67 4c 3e bd cd d2 cd 3c
       -0.014576925 -0.00069100776 -0.04645958 0.025124932
0000a0 b3 2f c6 3b 84 d2 51 3b 23 1a 35 bd 8c 96 37 bd
       0.0060481667 0.0032016346 -0.04421438 -0.044821307
0000b0 40 d3 94 bd 7f cf 46 bd e0 83 25 bc a3 42 bd 3c
       -0.07266855 -0.048537727 -0.010102242 0.023103064
0000c0 27 fe 78 bd b4 1a 14 3a 71 4c 1f 3d 5b 3e 83 bb
       -0.060789254 0.0005649731 0.03889126 -0.004005236
0000d0 da e0 18 3d 10 b9 44 bd 19 bd d2 bd 94 f7 63 bc
       0.03732381 -0.04802805 -0.10289974 -0.013914008
0000e0 eb 10 98 3c bd 6c b9 bd 3f 12 be bc ac b9 df bb
       0.018562755 -0.09053943 -0.02320206 -0.0068275537
0000f0 27 f8 f7 bd 54 7c cf bc b7 7b 10 3d aa 38 e0 bc
       -0.12107878 -0.025327839 0.035274234 -0.02737077
000100 86 af 65 bd b4 fc 17 bd 1e cc ca 3c c3 89 b4 bd
       -0.056075595 -0.03710623 0.024755534 -0.088153385
000110 43 c6 9d bc 79 b4 af bd 16 5e 75 bd d3 27 57 bd
       -0.019259578 -0.08579344 -0.05990418 -0.052528214
000120 02 1e 2e bd 31 e4 95 bd 34 86 cd bd 28 53 1e bc
       -0.042509086 -0.07318915 -0.10035363 -0.009663381
000130 cd 8b 8d bd a3 b2 da 3c a3 c0 99 3c 84 e5 98 bd
       -0.069114305 0.026696509 0.018768614 -0.07465652
000140 8e 57 3e bd d4 1b 10 bd e4 7a 6e bd 4e 04 2a 3c
       -0.046470217 -0.03518279 -0.058222666 0.010377003
000150 e7 38 af bd 92 7a 3d bc b3 4b 61 bd 14 6d be bc
       -0.08555775 -0.011564868 -0.055003833 -0.023245372
000160 9a 37 24 bc 1e 1b 61 bc f2 06 7d bd 05 c3 8b bd
       -0.010023022 -0.013739375 -0.0617742 -0.068243064
000170 9d e6 80 bd 09 ba 15 b9 f0 92 88 bd f0 9e 38 3c
       -0.06293986 -0.00014279051 -0.06668651 0.011268362
000180 10 13 08 bb 77 56 a5 bc 68 88 81 bd fa 60 f0 3b
       -0.0020763315 -0.020182831 -0.063248456 0.0073357793
000190 59 62 22 bd e3 0f e4 bd a1 fb 81 bd 73 c6 b0 bd
       -0.039644573 -0.11135843 -0.063468225 -0.08631601
0001a0 f2 2e 7e bd b6 e1 87 bd d8 20 39 bd 88 43 9f bc
       -0.06205649 -0.06634848 -0.045197338 -0.019441381
0001b0 8f 29 3e bd 7e d9 9f bb e1 0b 83 bc a7 c6 92 bd
       -0.046426352 -0.004878222 -0.015996875 -0.07166796
0001c0 1d 71 d2 bb e3 62 f4 bc 02 05 05 bb 7d fa 61 3c
       -0.0064221756 -0.02983231 -0.0020297174 0.013792631
0001d0 92 41 a4 3d 42 a9 04 3d 32 ad 13 3d 7d 65 9e bc
       0.08020319 0.03238798 0.036053844 -0.019335503
0001e0 2c 30 a7 bd 2d 5d 14 bd cd 56 53 bd 93 67 3f bd
       -0.08163485 -0.03622167 -0.05159645 -0.046729635
0001f0 d4 44 a4 ba 25 2f f2 bc 05 58 44 bd f9 c6 30 3c
       -0.0012532719 -0.029563496 -0.047935504 0.010789626
