backend/motion-server/app/trained_model/best_model.pt (torch, 908341 bytes, 23 tensors)

adjacency f4 [22, 22]
0.25 0.25 0.28867513 0.0 0.0 0.0 0.0 0.0
0.0 0.0 0.0 0.0 0.2236068 0.0 0.0 0.0
0.0 0.0 0.0 0.0 0.0 0.0 0.25 0.25
0.0 0.28867513 0.0 0.0 0.0 0.0 0.0 0.0
0.0 0.0 0.0 0.2236068 0.0 0.0 0.0 0.0
0.0 0.0 0.0 0.0 0.28867513 0.0 0.3333333 0.0
0.3333333 0.0 0.0 0.0 0.0 0.0 0.0 0.0
0.0 0.0 0.0 0.0 0.0 0.0 0.0 0.0
0.0 0.0 0.0 0.28867513 0.0 0.3333333 0.0 0.3333333
0.0 0.0 0.0 0.0 0.0 0.0 0.0 0.0
0.0 0.0 0.0 0.0 0.0 0.0 0.0 0.0
0.0 0.0 0.3333333 0.0 0.3333333 0.0 0.3333333 0.0
0.0 0.0 0.0 0.0 0.0 0.0 0.0 0.0
0.0 0.0 0.0 0.0 0.0 0.0 0.0 0.0
0.0 0.3333333 0.0 0.3333333 0.0 0.3333333 0.0 0.0
0.0 0.0 0.0 0.0 0.0 0.0 0.0 0.0
0.0 0.0 0.0 0.0 0.0 0.0 0.0 0.0
0.3333333 0.0 0.3333333 0.0 0.3333333 0.0 0.0 0.0
0.0 0.0 0.0 0.0 0.0 0.0 0.0 0.0
0.0 0.0 0.0 0.0 0.0 0.0 0.0 0.3333333
0.0 0.3333333 0.0 0.3333333 0.0 0.0 0.0 0.0
0.0 0.0 0.0 0.0 0.0 0.0 0.0 0.0
0.0 0.0 0.0 0.0 0.0 0.0 0.3333333 0.0
0.3333333 0.0 0.40824828 0.0 0.0 0.0 0.0 0.0
0.0 0.0 0.0 0.0 0.0 0.0 0.0 0.0
0.0 0.0 0.0 0.0 0.0 0.3333333 0.0 0.3333333
0.0 0.40824828 0.0 0.0 0.0 0.0 0.0 0.0
0.0 0.0 0.0 0.0 0.0 0.0 0.0 0.0
0.0 0.0 0.0 0.0 0.40824828 0.0 0.49999997 0.0
0.0 0.0 0.0 0.0 0.0 0.0 0.0 0.0
0.0 0.0 0.0 0.0 0.0 0.0 0.0 0.0
0.0 0.0 0.0 0.40824828 0.0 0.49999997 0.0 0.0
00000000: 0000 803e 0000 803e 3acd 933e 0000 0000
00000010: 0000 0000 0000 0000 0000 0000 0000 0000
00000020: 0000 0000 0000 0000 0000 0000 0000 0000
00000030: 2ef9 643e 0000 0000 0000 0000 0000 0000
00000040: 0000 0000 0000 0000 0000 0000 0000 0000
00000050: 0000 0000 0000 0000 0000 803e 0000 803e
00000060: 0000 0000 3acd 933e 0000 0000 0000 0000
00000070: 0000 0000 0000 0000 0000 0000 0000 0000
00000080: 0000 0000 0000 0000 0000 0000 2ef9 643e
00000090: 0000 0000 0000 0000 0000 0000 0000 0000
000000a0: 0000 0000 0000 0000 0000 0000 0000 0000
000000b0: 3acd 933e 0000 0000 aaaa aa3e 0000 0000
000000c0: aaaa aa3e 0000 0000 0000 0000 0000 0000
000000d0: 0000 0000 0000 0000 0000 0000 0000 0000
000000e0: 0000 0000 0000 0000 0000 0000 0000 0000
000000f0: 0000 0000 0000 0000 0000 0000 0000 0000
00000100: 0000 0000 0000 0000 0000 0000 3acd 933e
00000110: 0000 0000 aaaa aa3e 0000 0000 aaaa aa3e
00000120: 0000 0000 0000 0000 0000 0000 0000 0000
00000130: 0000 0000 0000 0000 0000 0000 0000 0000
00000140: 0000 0000 0000 0000 0000 0000 0000 0000
00000150: 0000 0000 0000 0000 0000 0000 0000 0000
00000160: 0000 0000 0000 0000 aaaa aa3e 0000 0000
00000170: aaaa aa3e 0000 0000 aaaa aa3e 0000 0000
00000180: 0000 0000 0000 0000 0000 0000 0000 0000
00000190: 0000 0000 0000 0000 0000 0000 0000 0000
000001a0: 0000 0000 0000 0000 0000 0000 0000 0000
000001b0: 0000 0000 0000 0000 0000 0000 0000 0000
000001c0: 0000 0000 aaaa aa3e 0000 0000 aaaa aa3e
000001d0: 0000 0000 aaaa aa3e 0000 0000 0000 0000
000001e0: 0000 0000 0000 0000 0000 0000 0000 0000
000001f0: 0000 0000 0000 0000 0000 0000 0000 0000
00000200: 0000 0000 0000 0000 0000 0000 0000 0000
00000210: 0000 0000 0000 0000 0000 0000 0000 0000
00000220: aaaa aa3e 0000 0000 aaaa aa3e 0000 0000
00000230: aaaa aa3e 0000 0000 0000 0000 0000 0000
00000240: 0000 0000 0000 0000 0000 0000 0000 0000
00000250: 0000 0000 0000 0000 0000 0000 0000 0000
00000260: 0000 0000 0000 0000 0000 0000 0000 0000
00000270: 0000 0000 0000 0000 0000 0000 aaaa aa3e
00000280: 0000 0000 aaaa aa3e 0000 0000 aaaa aa3e
00000290: 0000 0000 0000 0000 0000 0000 0000 0000
000002a0: 0000 0000 0000 0000 0000 0000 0000 0000
000002b0: 0000 0000 0000 0000 0000 0000 0000 0000
000002c0: 0000 0000 0000 0000 0000 0000 0000 0000
000002d0: 0000 0000 0000 0000 aaaa aa3e 0000 0000
000002e0: aaaa aa3e 0000 0000 eb05 d13e 0000 0000
000002f0: 0000 0000 0000 0000 0000 0000 0000 0000
00000300: 0000 0000 0000 0000 0000 0000 0000 0000
00000310: 0000 0000 0000 0000 0000 0000 0000 0000
00000320: 0000 0000 0000 0000 0000 0000 0000 0000
00000330: 0000 0000 aaaa aa3e 0000 0000 aaaa aa3e
00000340: 0000 0000 eb05 d13e 0000 0000 0000 0000
00000350: 0000 0000 0000 0000 0000 0000 0000 0000
00000360: 0000 0000 0000 0000 0000 0000 0000 0000
00000370: 0000 0000 0000 0000 0000 0000 0000 0000
00000380: 0000 0000 0000 0000 0000 0000 0000 0000
00000390: eb05 d13e 0000 0000 ffff ff3e 0000 0000
000003a0: 0000 0000 0000 0000 0000 0000 0000 0000
000003b0: 0000 0000 0000 0000 0000 0000 0000 0000
000003c0: 0000 0000 0000 0000 0000 0000 0000 0000
000003d0: 0000 0000 0000 0000 0000 0000 0000 0000
000003e0: 0000 0000 0000 0000 0000 0000 eb05 d13e
000003f0: 0000 0000 ffff ff3e 0000 0000 0000 0000

spatial_gcn.layers.0.adjacency f4 [22, 22]
0.25 0.25 0.28867513 0.0 0.0 0.0 0.0 0.0
0.0 0.0 0.0 0.0 0.2236068 0.0 0.0 0.0
0.0 0.0 0.0 0.0 0.0 0.0 0.25 0.25
0.0 0.28867513 0.0 0.0 0.0 0.0 0.0 0.0
0.0 0.0 0.0 0.2236068 0.0 0.0 0.0 0.0
0.0 0.0 0.0 0.0 0.28867513 0.0 0.3333333 0.0
0.3333333 0.0 0.0 0.0 0.0 0.0 0.0 0.0
0.0 0.0 0.0 0.0 0.0 0.0 0.0 0.0
0.0 0.0 0.0 0.28867513 0.0 0.3333333 0.0 0.3333333
0.0 0.0 0.0 0.0 0.0 0.0 0.0 0.0
0.0 0.0 0.0 0.0 0.0 0.0 0.0 0.0
0.0 0.0 0.3333333 0.0 0.3333333 0.0 0.3333333 0.0
0.0 0.0 0.0 0.0 0.0 0.0 0.0 0.0
0.0 0.0 0.0 0.0 0.0 0.0 0.0 0.0
0.0 0.3333333 0.0 0.3333333 0.0 0.3333333 0.0 0.0
0.0 0.0 0.0 0.0 0.0 0.0 0.0 0.0
0.0 0.0 0.0 0.0 0.0 0.0 0.0 0.0
0.3333333 0.0 0.3333333 0.0 0.3333333 0.0 0.0 0.0
0.0 0.0 0.0 0.0 0.0 0.0 0.0 0.0
0.0 0.0 0.0 0.0 0.0 0.0 0.0 0.3333333
0.0 0.3333333 0.0 0.3333333 0.0 0.0 0.0 0.0
0.0 0.0 0.0 0.0 0.0 0.0 0.0 0.0
0.0 0.0 0.0 0.0 0.0 0.0 0.3333333 0.0
0.3333333 0.0 0.40824828 0.0 0.0 0.0 0.0 0.0
0.0 0.0 0.0 0.0 0.0 0.0 0.0 0.0
0.0 0.0 0.0 0.0 0.0 0.3333333 0.0 0.3333333
0.0 0.40824828 0.0 0.0 0.0 0.0 0.0 0.0
0.0 0.0 0.0 0.0 0.0 0.0 0.0 0.0
0.0 0.0 0.0 0.0 0.40824828 0.0 0.49999997 0.0
0.0 0.0 0.0 0.0 0.0 0.0 0.0 0.0
0.0 0.0 0.0 0.0 0.0 0.0 0.0 0.0
0.0 0.0 0.0 0.40824828 0.0 0.49999997 0.0 0.0
00000000: 0000 803e 0000 803e 3acd 933e 0000 0000
00000010: 0000 0000 0000 0000 0000 0000 0000 0000
00000020: 0000 0000 0000 0000 0000 0000 0000 0000
00000030: 2ef9 643e 0000 0000 0000 0000 0000 0000
00000040: 0000 0000 0000 0000 0000 0000 0000 0000
00000050: 0000 0000 0000 0000 0000 803e 0000 803e
00000060: 0000 0000 3acd 933e 0000 0000 0000 0000
00000070: 0000 0000 0000 0000 0000 0000 0000 0000
00000080: 0000 0000 0000 0000 0000 0000 2ef9 643e
00000090: 0000 0000 0000 0000 0000 0000 0000 0000
000000a0: 0000 0000 0000 0000 0000 0000 0000 0000
000000b0: 3acd 933e 0000 0000 aaaa aa3e 0000 0000
000000c0: aaaa aa3e 0000 0000 0000 0000 0000 0000
000000d0: 0000 0000 0000 0000 0000 0000 0000 0000
000000e0: 0000 0000 0000 0000 0000 0000 0000 0000
000000f0: 0000 0000 0000 0000 0000 0000 0000 0000
00000100: 0000 0000 0000 0000 0000 0000 3acd 933e
00000110: 0000 0000 aaaa aa3e 0000 0000 aaaa aa3e
00000120: 0000 0000 0000 0000 0000 0000 0000 0000
00000130: 0000 0000 0000 0000 0000 0000 0000 0000
00000140: 0000 0000 0000 0000 0000 0000 0000 0000
00000150: 0000 0000 0000 0000 0000 0000 0000 0000
00000160: 0000 0000 0000 0000 aaaa aa3e 0000 0000
00000170: aaaa aa3e 0000 0000 aaaa aa3e 0000 0000
00000180: 0000 0000 0000 0000 0000 0000 0000 0000
00000190: 0000 0000 0000 0000 0000 0000 0000 0000
000001a0: 0000 0000 0000 0000 0000 0000 0000 0000
000001b0: 0000 0000 0000 0000 0000 0000 0000 0000
000001c0: 0000 0000 aaaa aa3e 0000 0000 aaaa aa3e
000001d0: 0000 0000 aaaa aa3e 0000 0000 0000 0000
000001e0: 0000 0000 0000 0000 0000 0000 0000 0000
000001f0: 0000 0000 0000 0000 0000 0000 0000 0000
00000200: 0000 0000 0000 0000 0000 0000 0000 0000
00000210: 0000 0000 0000 0000 0000 0000 0000 0000
00000220: aaaa aa3e 0000 0000 aaaa aa3e 0000 0000
00000230: aaaa aa3e 0000 0000 0000 0000 0000 0000
00000240: 0000 0000 0000 0000 0000 0000 0000 0000
00000250: 0000 0000 0000 0000 0000 0000 0000 0000
00000260: 0000 0000 0000 0000 0000 0000 0000 0000
00000270: 0000 0000 0000 0000 0000 0000 aaaa aa3e
00000280: 0000 0000 aaaa aa3e 0000 0000 aaaa aa3e
00000290: 0000 0000 0000 0000 0000 0000 0000 0000
000002a0: 0000 0000 0000 0000 0000 0000 0000 0000
000002b0: 0000 0000 0000 0000 0000 0000 0000 0000
000002c0: 0000 0000 0000 0000 0000 0000 0000 0000
000002d0: 0000 0000 0000 0000 aaaa aa3e 0000 0000
000002e0: aaaa aa3e 0000 0000 eb05 d13e 0000 0000
000002f0: 0000 0000 0000 0000 0000 0000 0000 0000
00000300: 0000 0000 0000 0000 0000 0000 0000 0000
00000310: 0000 0000 0000 0000 0000 0000 0000 0000
00000320: 0000 0000 0000 0000 0000 0000 0000 0000
00000330: 0000 0000 aaaa aa3e 0000 0000 aaaa aa3e
00000340: 0000 0000 eb05 d13e 0000 0000 0000 0000
00000350: 0000 0000 0000 0000 0000 0000 0000 0000
00000360: 0000 0000 0000 0000 0000 0000 0000 0000
00000370: 0000 0000 0000 0000 0000 0000 0000 0000
00000380: 0000 0000 0000 0000 0000 0000 0000 0000
00000390: eb05 d13e 0000 0000 ffff ff3e 0000 0000
000003a0: 0000 0000 0000 0000 0000 0000 0000 0000
000003b0: 0000 0000 0000 0000 0000 0000 0000 0000
000003c0: 0000 0000 0000 0000 0000 0000 0000 0000
000003d0: 0000 0000 0000 0000 0000 0000 0000 0000
000003e0: 0000 0000 0000 0000 0000 0000 eb05 d13e
000003f0: 0000 0000 ffff ff3e 0000 0000 0000 0000

spatial_gcn.layers.0.linear.weight f4 [64, 2]
0.043934807 0.04992984 -0.26683912 0.56886923 -0.122884564 -0.028759586 -0.38247785 0.2032934
3.5336894e-12 -7.597303e-25 0.09055292 -0.04992402 0.51817083 -0.06405602 0.4255848 -0.1032982
-1.8514865e-31 3.075141e-39 3.981193e-39 3.492e-42 -0.32924634 -0.10201834 -0.44897753 0.48548248
-0.5266918 -0.30236724 1.7128e-39 2.061142e-39 0.07143256 -0.7622972 0.42000356 -0.23106655
0.46677774 -0.0046236417 -0.27268153 0.2021723 -0.1172807 0.096267685 -0.015526089 -0.0762056
0.01382315 -0.1381651 0.33037066 0.6031258 0.3952435 -0.32031554 0.43446013 0.12687297
0.481714 -0.38175422 -3.3525576e-18 1.51385e-40 -0.49054813 0.20702513 -0.0058854255 -0.011758812
0.003972533 -0.014194413 0.45643002 -0.4622901 0.16591048 -0.4443075 -0.00614091 -0.015155234
0.008879041 -0.09081726 0.59802526 -0.4568442 3.3039823e-21 -4.390405e-05 0.7471405 0.16824183
0.5380048 -0.5548043 -3.9260416e-18 2.4557106e-30 -0.031850737 -0.011261512 -0.06801868 0.076371916
-0.019013725 -0.026290057 -0.0342702 -0.022307524 0.46697792 -0.10817673 0.5307387 -0.4711448
-0.20660089 0.07474761 0.007907064 -0.013881138 0.32514748 0.43966976 -0.014663272 -0.051100537
0.6951827 -0.117031336 -0.16328266 -0.681402 -0.31873715 0.035274275 -5.61978e-39 2.3335252e-35
-0.0024072563 -0.5325088 -0.605471 -0.38471293 -2.7278182e-23 4.987343e-39 0.6186294 0.018925995
0.27389437 -0.70375776 -0.43557844 -0.32090554 0.22069027 -0.5866486 -1.7261399e-09 -3.658435e-08
-0.0021005638 -3.1356645e-05 -1.0300482e-12 -3.3611974e-07 -0.026642773 -0.015961248 -2.5009373e-16 -1.8154322e-17
00000000: fcf4 333d 3b83 4c3d 239f 88be 6aa1 113f
00000010: e7aa fbbd 3999 ebbc 23d4 c3be 252c 503e
00000020: 4aa9 782c 0920 6b97 cf73 b93d 217d 4cbd
00000030: d8a6 043f cd2f 83bd 40e6 d93e 028e d3bd
00000040: 3156 708c 3e7c 2100 f259 2b00 bc09 0000
00000050: fa92 a8be feee d0bd 62e0 e5be 2991 f83e
00000060: 46d5 06bf e1cf 9abe 97a6 1200 a071 1600
00000070: 3c4b 923d e925 43bf b50a d73e b69c 6cbe
00000080: 7efd ee3e eb81 97bb ea9c 8bbe 4106 4f3e
00000090: dd30 f0bd fe27 c53d 2361 7ebc ae11 9cbd
000000a0: 7e7a 623c 277b 0dbe 5826 a93e 7466 1a3f
000000b0: 5b5d ca3e 6600 a4be 8f71 de3e fdea 013e
000000c0: 38a3 f63e 4a75 c3be 0660 77a2 00a6 0100
000000d0: 2029 fbbe 65fe 533e 87da c0bb 08a8 40bc
000000e0: 062c 823b af8f 68bc 32b1 e93e 4ab1 ecbe
000000f0: 70e4 293e 467c e3be b039 c9bb a94d 78bc
00000100: 6679 113c 66fe b9bd 2f18 193f 7ce7 e9be
00000110: 50a4 791d 9d25 38b8 9a44 3f3f 9647 2c3e
00000120: afba 093f a807 0ebf 6ad8 90a2 1d3b 470e
00000130: eb75 02bd 3482 38bc 614d 8bbd e168 9c3d
00000140: acc2 9bbc 3f5e d7bc e95e 0cbd 45be b6bc
00000150: bb17 ef3e c38b ddbd 7ede 073f e439 f1be
00000160: 2f8f 53be 4615 993d a18c 013c b66d 63bc
00000170: bb79 a63e 651c e13e 383e 70bc cc4e 51bd
00000180: 7ef7 313f 20ae efbd 9233 27be 5d70 2ebf
00000190: 8431 a3be c27b 103d a931 3d80 9924 f805
000001a0: 0fc3 1dbb 7f52 08bf 2600 1bbf 18f9 c4be
000001b0: c1e8 039a af4e 3600 7f5e 1e3f b00a 9b3c
000001c0: e23b 8c3e 7829 34bf 2304 dfbe bb4d a4be
000001d0: a1fc 613e 9a2e 16bf 263d edb0 eb20 1db3
000001e0: 9da9 09bb f184 03b8 66f7 90ab f273 b4b4
000001f0: f241 dabc 2ac1 82bc 522b 90a5 ae71 a7a3

spatial_gcn.layers.0.linear.bias f4 [64]
-0.010565124 -0.20908149 0.03916738 0.07270544 -6.326388e-11 0.022368876 -0.18850084 -0.20707437
-2.6405544e-26 -4.709546e-18 0.23136416 -0.1003358 0.33200622 -4.191032e-27 0.40654567 -0.1468925
-0.21993783 0.028280605 -0.054352265 0.046038534 0.08316422 -0.6067257 0.0102680195 -0.31390405
-0.050059564 -2.9169273e-33 0.15057026 -0.021379946 0.039491434 0.07885633 0.1804959 -0.023262404
0.06940231 -0.015473966 -1.3080069e-07 -0.5581109 0.09597215 -2.858853e-39 -0.03671466 0.03451576
-0.022035727 -0.0017644716 -0.23577146 -0.025927136 0.088225454 -0.030653797 -0.4346408 -0.038694356
-0.35788286 0.32263744 0.14294541 -4.6694866e-20 0.20843025 0.39071444 3.36819e-39 -0.34479472
0.2663762 0.39370072 0.2346308 -0.00035421236 -2.8078055e-06 -1.6947677e-08 -0.020014273 1.6382193e-18
00000000: 5819 2dbc 7519 56be fa6d 203d 97e6 943d
00000010: 661e 8bae ef3e b73c 5d06 41be 4e0b 54be
00000020: 01c1 0295 68c0 ada2 baea 6c3e db7c cdbd
00000030: b8fc a93e 1d06 a693 c126 d03e fd6a 16be
00000040: 6237 61be baac e73c 7ba0 5ebd e792 3c3d
00000050: 0152 aa3d 6052 1bbf 323b 283c 08b8 a0be
00000060: 420b 4dbd 2f54 7289 172f 1a3e ff24 afbc
00000070: c5c1 213d 6d7f a13d ebd3 383e cc90 bebc
00000080: cc22 8e3d 8486 7dbc 3872 0cb4 5be0 0ebf
00000090: 0c8d c43d 5221 1f80 1c62 16bd 6660 0d3d
000000a0: 4584 b4bc d845 e7ba 136e 71be 2565 d4bc
000000b0: 8caf b43d ac1d fbbc 3d89 debe f97d 1ebd
000000c0: 6c3c b7be bc30 a53e 4860 123e a182 5c9f
000000d0: bd6e 553e b90b c83e 25ad 2400 ef88 b0be
000000e0: 7662 883e 2493 c93e 0e43 703e 94b5 b9b9
000000f0: bb6d 3cb6 5694 91b2 f9f4 a3bc 2dc2 f121

spatial_gcn.layers.2.adjacency f4 [22, 22]
0.25 0.25 0.28867513 0.0 0.0 0.0 0.0 0.0
0.0 0.0 0.0 0.0 0.2236068 0.0 0.0 0.0
0.0 0.0 0.0 0.0 0.0 0.0 0.25 0.25
0.0 0.28867513 0.0 0.0 0.0 0.0 0.0 0.0
0.0 0.0 0.0 0.2236068 0.0 0.0 0.0 0.0
0.0 0.0 0.0 0.0 0.28867513 0.0 0.3333333 0.0
0.3333333 0.0 0.0 0.0 0.0 0.0 0.0 0.0
0.0 0.0 0.0 0.0 0.0 0.0 0.0 0.0
0.0 0.0 0.0 0.28867513 0.0 0.3333333 0.0 0.3333333
0.0 0.0 0.0 0.0 0.0 0.0 0.0 0.0
0.0 0.0 0.0 0.0 0.0 0.0 0.0 0.0
0.0 0.0 0.3333333 0.0 0.3333333 0.0 0.3333333 0.0
0.0 0.0 0.0 0.0 0.0 0.0 0.0 0.0
0.0 0.0 0.0 0.0 0.0 0.0 0.0 0.0
0.0 0.3333333 0.0 0.3333333 0.0 0.3333333 0.0 0.0
0.0 0.0 0.0 0.0 0.0 0.0 0.0 0.0
0.0 0.0 0.0 0.0 0.0 0.0 0.0 0.0
0.3333333 0.0 0.3333333 0.0 0.3333333 0.0 0.0 0.0
0.0 0.0 0.0 0.0 0.0 0.0 0.0 0.0
0.0 0.0 0.0 0.0 0.0 0.0 0.0 0.3333333
0.0 0.3333333 0.0 0.3333333 0.0 0.0 0.0 0.0
0.0 0.0 0.0 0.0 0.0 0.0 0.0 0.0
0.0 0.0 0.0 0.0 0.0 0.0 0.3333333 0.0
0.3333333 0.0 0.40824828 0.0 0.0 0.0 0.0 0.0
0.0 0.0 0.0 0.0 0.0 0.0 0.0 0.0
0.0 0.0 0.0 0.0 0.0 0.3333333 0.0 0.3333333
0.0 0.40824828 0.0 0.0 0.0 0.0 0.0 0.0
0.0 0.0 0.0 0.0 0.0 0.0 0.0 0.0
0.0 0.0 0.0 0.0 0.40824828 0.0 0.49999997 0.0
0.0 0.0 0.0 0.0 0.0 0.0 0.0 0.0
0.0 0.0 0.0 0.0 0.0 0.0 0.0 0.0
0.0 0.0 0.0 0.40824828 0.0 0.49999997 0.0 0.0
00000000: 0000 803e 0000 803e 3acd 933e 0000 0000
00000010: 0000 0000 0000 0000 0000 0000 0000 0000
00000020: 0000 0000 0000 0000 0000 0000 0000 0000
00000030: 2ef9 643e 0000 0000 0000 0000 0000 0000
00000040: 0000 0000 0000 0000 0000 0000 0000 0000
00000050: 0000 0000 0000 0000 0000 803e 0000 803e
00000060: 0000 0000 3acd 933e 0000 0000 0000 0000
00000070: 0000 0000 0000 0000 0000 0000 0000 0000
00000080: 0000 0000 0000 0000 0000 0000 2ef9 643e
00000090: 0000 0000 0000 0000 0000 0000 0000 0000
000000a0: 0000 0000 0000 0000 0000 0000 0000 0000
000000b0: 3acd 933e 0000 0000 aaaa aa3e 0000 0000
000000c0: aaaa aa3e 0000 0000 0000 0000 0000 0000
000000d0: 0000 0000 0000 0000 0000 0000 0000 0000
000000e0: 0000 0000 0000 0000 0000 0000 0000 0000
000000f0: 0000 0000 0000 0000 0000 0000 0000 0000
00000100: 0000 0000 0000 0000 0000 0000 3acd 933e
00000110: 0000 0000 aaaa aa3e 0000 0000 aaaa aa3e
00000120: 0000 0000 0000 0000 0000 0000 0000 0000
00000130: 0000 0000 0000 0000 0000 0000 0000 0000
00000140: 0000 0000 0000 0000 0000 0000 0000 0000
00000150: 0000 0000 0000 0000 0000 0000 0000 0000
00000160: 0000 0000 0000 0000 aaaa aa3e 0000 0000
00000170: aaaa aa3e 0000 0000 aaaa aa3e 0000 0000
00000180: 0000 0000 0000 0000 0000 0000 0000 0000
00000190: 0000 0000 0000 0000 0000 0000 0000 0000
000001a0: 0000 0000 0000 0000 0000 0000 0000 0000
000001b0: 0000 0000 0000 0000 0000 0000 0000 0000
000001c0: 0000 0000 aaaa aa3e 0000 0000 aaaa aa3e
000001d0: 0000 0000 aaaa aa3e 0000 0000 0000 0000
000001e0: 0000 0000 0000 0000 0000 0000 0000 0000
000001f0: 0000 0000 0000 0000 0000 0000 0000 0000
00000200: 0000 0000 0000 0000 0000 0000 0000 0000
00000210: 0000 0000 0000 0000 0000 0000 0000 0000
00000220: aaaa aa3e 0000 0000 aaaa aa3e 0000 0000
00000230: aaaa aa3e 0000 0000 0000 0000 0000 0000
00000240: 0000 0000 0000 0000 0000 0000 0000 0000
00000250: 0000 0000 0000 0000 0000 0000 0000 0000
00000260: 0000 0000 0000 0000 0000 0000 0000 0000
00000270: 0000 0000 0000 0000 0000 0000 aaaa aa3e
00000280: 0000 0000 aaaa aa3e 0000 0000 aaaa aa3e
00000290: 0000 0000 0000 0000 0000 0000 0000 0000
000002a0: 0000 0000 0000 0000 0000 0000 0000 0000
000002b0: 0000 0000 0000 0000 0000 0000 0000 0000
000002c0: 0000 0000 0000 0000 0000 0000 0000 0000
000002d0: 0000 0000 0000 0000 aaaa aa3e 0000 0000
000002e0: aaaa aa3e 0000 0000 eb05 d13e 0000 0000
000002f0: 0000 0000 0000 0000 0000 0000 0000 0000
00000300: 0000 0000 0000 0000 0000 0000 0000 0000
00000310: 0000 0000 0000 0000 0000 0000 0000 0000
00000320: 0000 0000 0000 0000 0000 0000 0000 0000
00000330: 0000 0000 aaaa aa3e 0000 0000 aaaa aa3e
00000340: 0000 0000 eb05 d13e 0000 0000 0000 0000
00000350: 0000 0000 0000 0000 0000 0000 0000 0000
00000360: 0000 0000 0000 0000 0000 0000 0000 0000
00000370: 0000 0000 0000 0000 0000 0000 0000 0000
00000380: 0000 0000 0000 0000 0000 0000 0000 0000
00000390: eb05 d13e 0000 0000 ffff ff3e 0000 0000
000003a0: 0000 0000 0000 0000 0000 0000 0000 0000
000003b0: 0000 0000 0000 0000 0000 0000 0000 0000
000003c0: 0000 0000 0000 0000 0000 0000 0000 0000
000003d0: 0000 0000 0000 0000 0000 0000 0000 0000
000003e0: 0000 0000 0000 0000 0000 0000 eb05 d13e
000003f0: 0000 0000 ffff ff3e 0000 0000 0000 0000

spatial_gcn.layers.2.linear.weight f4 [128, 64]
0.044096384 0.04340836 -0.0021601166 0.009594246 -6.569688e-39 -0.025353177 -0.022117916 0.11966215
-2.537652e-39 5.899528e-39 0.18658313 -0.041173875 -0.017553449 -5.088195e-39 -0.09468542 -0.18210809
-0.041542772 0.050685048 0.04596933 0.059199214 -0.09433032 -0.18518254 -0.040573172 0.11800929
0.27783102 6.378638e-39 0.02849627 0.044085335 -0.056934457 0.0660541 -0.08432148 -6.1600166e-14
-0.1187214 0.043385066 -4.319129e-22 0.07338962 -0.10128313 2.22736e-39 -0.0051648384 0.05904545
-8.8575654e-11 0.02288625 0.11421901 0.24286678 0.012206984 -5.2363436e-08 -0.13456708 0.034576263
0.24282196 -0.33049336 -0.006878657 -4.010665e-39 -0.29640344 -0.10550567 4.171862e-39 0.054901637
-0.059800442 0.17356166 -0.0888619 2.287736e-17 -6.888923e-29 1.0401638e-13 -0.016722022 -1.807069e-16
0.024784407 -0.050779093 0.030073334 0.044793975 4.37965e-40 -0.075382814 0.1417482 -0.24924085
3.733304e-39 -3.401358e-39 -0.015601167 0.17948933 0.06529362 -2.961811e-39 0.059455857 -0.05912105
0.101064935 0.07339174 0.064073786 -0.021332894 -0.062260576 0.08730924 0.101518445 -0.12952487
-0.18617927 -2.987135e-39 -0.037086807 -0.008764647 -0.033938836 0.022182202 -0.0881185 -4.311098e-17
0.08721591 0.07061629 -1.4199476e-22 -0.094735794 -0.06894155 -2.046643e-39 0.0023128719 -0.07193294
0.001184118 -0.03981248 -0.26385412 -0.17395134 -0.01717139 -6.1488687e-12 -0.07182086 -0.03588101
-0.34100866 0.08097286 -0.054578763 2.996751e-39 -0.06222477 0.06717757 -4.952936e-39 0.05977741
-0.07746655 -0.032316223 0.15250821 -4.790773e-18 2.58383e-39 6.6582007e-15 0.012332174 -1.0216921e-20
-0.05843966 0.010976751 0.04794403 0.055463266 3.265237e-39 -0.07119774 -0.07114403 -0.2994572
4.446153e-39 -1.13137e-39 0.16526097 0.05119306 -0.13524207 -2.0288e-39 0.058055956 -0.10745931
-0.021791881 0.034964196 -0.01342114 -0.030051034 -0.011320325 0.16864856 -0.028908398 0.037918407
-0.2192751 4.532512e-39 0.059997942 -0.020403123 -0.049842022 0.052248493 0.067272015 4.3810963e-17
0.08517814 0.06299461 1.012429e-22 0.08874273 0.08094828 3.1705832e-38 -0.006564096 0.089067
0.00017784094 -0.04590431 -0.29996967 -0.1041287 0.042782996 -5.2018025e-14 0.05549536 0.029542588
-0.33844274 -0.16063134 0.06853623 3.047243e-39 -0.26161915 -0.09934406 -6.2332e-40 0.01398383
0.022552427 0.1649611 0.11091835 -1.4966219e-17 -1.21853625e-29 -7.1366865e-13 0.020909786 1.9255236e-17
0.02148509 0.11465822 -0.062198862 -0.043034807 -4.310337e-39 -0.040491525 -0.08159677 0.35602915
-5.044586e-39 -3.508172e-39 0.04556254 -0.20141026 0.05191241 3.4938908e-38 0.029366862 0.23837516
-0.04383592 0.08143428 0.011814568 -0.011237385 -0.028300941 -0.24808832 -0.1508929 -0.040725444
0.06626101 -2.63904e-40 -0.021481568 -0.0070120804 0.06576707 -0.013019012 0.057664037 4.4955476e-17
-0.06287485 -0.026716897 -4.4896973e-25 0.12781128 -0.05434124 3.66074e-39 -0.008008423 0.047267523
0.00012534183 0.02069687 0.37566218 -0.0047621955 -0.019264115 1.3056283e-09 0.069238216 0.032802604
0.3945557 0.08120056 -0.072707154 5.659159e-39 0.047181256 0.13718769 1.565077e-39 0.05184065
-0.046033546 0.1350214 -0.032313615 -3.380327e-18 -2.4174945e-33 -4.5235235e-13 -0.0006743153 -1.4335174e-17
00000000: 699e 343d f7cc 313d be90 0dbb 2f31 1d3c
00000010: 9e89 4780 77b1 cfbc a230 b5bc 6e11 f53d
00000020: f1a1 1b80 7c3d 4000 a60f 3f3e f0a5 28bd
00000030: 40cc 8fbc d167 3780 6eea c1bd 8b7a 3abe
00000040: c128 2abd 209b 4f3d 564a 3c3d e07a 723d
00000050: 4130 c1bd 7ea0 3dbe 0e30 26bd dbae f13d
00000060: de3f 8e3e 0c75 4500 0271 e93c d392 343d
00000070: 1b34 69bd 5f47 873d bdb0 acbd 14b6 8aa9
00000080: 3524 f3bd 8ab4 313d a489 029c 4c4d 963d
00000090: 886d cfbd f940 1800 ce3d a9bb a4d9 713d
000000a0: a9c7 c2ae f27b bb3c a8eb e93d 12b2 783e
000000b0: cdff 473c 35e6 60b3 f4cb 09be d79f 0d3d
000000c0: 52a6 783e 6d36 a9be 5b66 e1bb 1aac 2b80
000000d0: 31c2 97be 5b13 d8bd 746d 2d00 8ae0 603d
000000e0: 4ff1 74bd 26ba 313e 3afd b5bd a401 d323
000000f0: aba7 ae90 5c39 ea29 9ffc 88bc 4357 50a5
00000100: ab08 cb3c bdfd 4fbd 5a5c f63c e379 373d
00000110: dec4 0400 4e62 9abd 7126 113e fe38 7fbe
00000120: efa6 2800 9a09 2580 0a9c 7fbc 0dcc 373e
00000130: a9b8 853d 5340 2080 fc87 733d ea28 72bd
00000140: 22fb ce3d 694e 963d 1e39 833d 52c2 aebc
00000150: f204 7fbd 30cf b23d e7e8 cf3d 2ba2 04be
00000160: c7a5 3ebe eb86 2080 56e8 17bd 9899 0fbc
00000170: 7303 0bbd 73b7 b53c 7977 b4bd 76d0 46a4
00000180: 419e b23d 469f 903d 40a9 2b9b d704 c2bd
00000190: 3a31 8dbd 3549 1680 8d93 173b 9451 93bd
000001a0: 6834 9b3a 6912 23bd e317 87be 4d20 32be
000001b0: 04ab 8cbc 1658 d8ac d116 93bd f7f7 12bd
000001c0: b098 aebe 19d5 a53d fb8d 5fbd b9a1 2000
000001d0: 67df 7ebd 6594 893d c5ee 3580 28d9 743d
000001e0: c8a6 9ebd 045e 04bd 1d2b 1c3e 92bf b0a2
000001f0: ab22 1c00 10e3 ef27 e30c 4a3c 00fe 409e
00000200: 6d5e 6fbd d5d7 333c f660 443d 732d 633d
00000210: 278e 2300 1fd0 91bd f6b3 91bd 7452 99be
00000220: 116a 3000 cd51 0c80 2c3a 293e d0af 513d
00000230: e67c 0abe 7817 1680 15cc 6d3d a013 dcbd
00000240: e384 b2bc 9e36 0f3d 57e4 5bbc 962d f6bc
00000250: e278 39bc 35b2 2c3e 4ed1 ecbc 5550 1b3d
00000260: a789 60be cd5a 3100 67c0 753d 7324 a7bc
00000270: 2627 4cbd 8402 563d e9c5 893d db0a 4a24
00000280: e071 ae3d 5103 813d 52ca f41a c0be b53d
00000290: 36c8 a53d 7b9f 2c01 a117 d7bb c268 b63d
000002a0: d07a 3a39 2806 3cbd a095 99be 6e41 d5bd
000002b0: 393d 2f3d b344 6aa9 1a4f 633d 4c03 f23c
000002c0: 5e48 adbe 8b7c 24be b95c 8c3d 792e 2100
000002d0: f2f2 85be e674 cbbd 90c9 0680 6f1c 653c
000002e0: debf b83c 90eb 283e 2929 e33d fc09 8aa3
000002f0: 0526 778f 3fe1 48ab 004b ab3c 2499 b123
00000300: 8001 b03c eed1 ea3d 3cc4 7ebd 4445 30bd
00000310: 77ef 2e80 71da 25bd 351c a7bd 7449 b63e
00000320: 41ee 3680 5b33 2680 c99f 3a3d 7e3e 4ebe
00000330: 1ba2 543d bb39 3e01 c692 f03c 9e18 743e
00000340: 4b8d 33bd 04c7 a63d e491 413c 021d 38bc
00000350: 60d7 e7bc dd0a 7ebe ab83 1abe b9cf 26bd
00000360: dab3 873d a8df 0280 1dfa afbc 98c5 e5bb
00000370: e3b0 863d b24d 55bc 2031 6c3d 0f52 4f24
00000380: 88c4 80bd 65dd dabc 0cf3 0a97 f6e0 023e
00000390: ec94 5ebd a7dc 2700 c335 03bc 979b 413d
000003a0: 316e 0339 7b8c a93c cb56 c03e 310c 9cbb
000003b0: c7cf 9dbc b671 b330 c4cc 8d3d 065c 063d
000003c0: 3403 ca3e 7b4c a63d 7de7 94bd 6f9f 3d00
000003d0: 2241 413d ee7a 0c3e cc0a 1100 dd56 543d
000003e0: ac8d 3cbd 0d43 0a3e 485b 04bd 926c 79a2
000003f0: 6cd6 4889 d8a6 feaa 89c4 30ba f937 84a3

spatial_gcn.layers.2.linear.bias f4 [128]
0.090328805 0.015467289 0.10015411 0.034605265 -0.03762912 0.030121302 -0.0017591254 0.022947885
0.02770022 -0.06123492 0.028994123 0.04110435 0.019278158 0.1271043 0.028993681 0.06590333
0.036660377 -0.030730544 0.0144108655 0.036724154 -0.044168074 -0.053746324 0.00658508 -0.042997662
0.029125515 -0.078555085 0.040489595 0.010574312 0.073644646 -0.035278626 -1.616242e-05 0.00445571
-0.020802034 0.05468907 0.034994047 -0.030632788 -0.11421655 0.006470135 0.050048955 0.0011472886
-0.029651882 -0.1076478 0.022823451 -0.020425504 -0.082400024 0.030332407 0.05436281 0.033414572
0.007783327 0.060405612 -0.00511739 -0.009675736 -0.015448745 -0.053763814 0.012951453 -0.01526222
0.027768478 -0.022112094 -0.055672944 0.002157954 0.04692789 -0.025477417 -0.03917781 -0.010603734
-0.034913037 0.05458587 0.06914106 0.036249913 -0.021610878 -0.04044408 -0.009567879 -0.019266715
-0.025852863 -0.043877847 0.017956724 -0.05979436 0.029380295 -0.056232378 0.036903776 0.010865653
0.03291533 -0.049955092 -0.0414081 -0.06322696 -0.026548969 -0.031312898 -0.008608498 0.022851646
-0.028299145 0.020770252 -0.025714625 0.0005040303 0.07051548 0.01221856 0.037339155 0.0012769802
0.014232342 -0.0009092366 -0.046292365 -0.06628942 0.01814759 -0.05799387 -0.06610565 0.03399212
0.050356913 0.022814134 -0.010055668 0.07287496 -0.04003412 -0.0460997 0.04802741 -0.018745523
0.007484496 -0.0017431589 -0.04937895 0.025606029 0.033195287 0.020779092 0.06695651 0.001592843
0.03528109 0.06847975 -0.018463174 0.0024193951 0.022687545 0.03959304 0.0059763915 0.024618087
00000000: 4ffe b83d 836a 7d3c 991d cd3d 40be 0d3d
00000010: fe20 1abd f3c0 f63c 7492 e6ba 34fd bb3c
00000020: 92eb e23c 78d1 7abd 1585 ed3c 095d 283d
00000030: 3aed 9d3c a127 023e 2884 ed3c 53f8 863d
00000040: 3129 163d 9fbe fbbc 8d1b 6c3c 116c 163d
00000050: 95e9 34bd 1b25 5cbd a8c7 d73b 511e 30bd
00000060: a298 ee3c 7de1 a0bd 6bd8 253d e13f 2d3c
00000070: 01d3 963d 5280 10bd 8894 87b7 3401 923b
00000080: 0769 aabc a501 603d eb55 0f3d 9df1 fabc
00000090: 5eea e9bd 6d03 d43b 2200 4d3d 9e60 963a
000000a0: 81e8 f2bc 7376 dcbd 3ff8 ba3c 6353 a7bc
000000b0: 58c1 a8bd ab7b f83c 8aab 5e3d b8dd 083d
000000c0: 470b ff3b e06b 773d c7af a7bb fa86 1ebc
000000d0: bc1c 7dbc 7237 5cbd 5532 543c 640e 7abc
000000e0: b87a e33c 6c24 b5bc 5009 64bd 766c 0d3b
000000f0: 7637 403d 04b6 d0bc e978 20bd 49bb 2dbc
00000100: f900 0fbd 6f95 5f3d d499 8d3d ca7a 143d
00000110: 4c09 b1bc b1a8 25bd 98c2 1cbc 3bd5 9dbc
00000120: 62c9 d3bc 42b9 33bd fb19 933c eeea 74bd
00000130: f2ae f03c ec53 66bd 6a28 173d da05 323c
00000140: 3ad2 063d b69d 4cbd 8a9b 29bd 237d 81bd
00000150: 397d d9bc f441 00bd a80a 0dbc 6033 bb3c
00000160: 9cd3 e7bc 6026 aa3c 7aa7 d2bc e720 043a
00000170: 6c6a 903d 5b30 483c f1f0 183d 5860 a73a
00000180: c52e 693c d659 6eba 109d 3dbd bfc2 87bd
00000190: 41aa 943c fb8a 6dbd 6662 87bd 523b 0b3d
000001a0: 0d43 4e3d b5e4 ba3c 87c0 24bc 783f 953d
000001b0: d1fa 23bd 0ad3 3cbd 64b8 443d 3690 99bc
000001c0: 8140 f53b b57a e4ba 9541 4abd bcc3 d13c
000001d0: c8f7 073d ea38 aa3c 7f20 893d f1c6 d03a
000001e0: e782 103d 1c3f 8c3d 1540 97bc b78e 1e3b
000001f0: 3bdb b93c 502c 223d 9bd5 c33b dfab c93c

temporal_net.0.net.0.weight f4 [128, 128, 3]
-0.0060730595 0.0036526124 -0.011388428 0.009148333 0.071960784 0.036060974 0.005192923 -0.030859133
-0.094327725 -0.14139639 -0.14852464 -0.16891524 -0.12745349 -0.14987801 -0.081568845 0.0058498327
0.076501824 0.07387837 -0.01887423 -0.031373467 -0.0071175876 -0.08346985 -0.106021196 -0.1571604
0.023258781 0.041818436 0.0778356 -0.046669155 -0.063975625 -0.021987053 0.016510155 0.049119286
0.0010459586 -0.09069233 -0.06064174 -0.08561277 -0.055280622 -0.048982754 -0.04244793 0.0060896934
0.042503774 -0.034544867 0.078050904 0.06899982 0.060431037 0.0726193 0.06357767 0.009613029
0.04303275 0.075472474 0.0789455 -0.069602445 -0.083075516 -0.08321505 0.07160509 -0.019848814
-0.0075475853 0.05538153 0.037060183 -0.025264831 -0.038461644 -0.022360526 0.0036665064 0.0026039951
0.030574126 0.05075705 0.10031129 0.101643 0.022058433 -0.04976837 -0.1023424 -0.021504283
0.023577938 0.029116523 -0.011117782 0.029650535 0.0006546418 -0.017240148 0.03125752 0.06959262
-0.020000586 0.049102128 0.0051730303 0.06454384 0.019155385 0.005754979 0.008041406 -0.016641034
0.013521802 -0.012316118 0.0459921 0.06884909 -0.0064995266 0.16632739 0.14993083 0.1823646
-0.008844319 0.0022323988 0.024719292 0.014798612 -0.013708974 0.014428713 -0.018776365 -0.022675829
-0.059039697 -0.019430364 -0.042179614 -0.03503605 0.14379862 0.16958605 0.2066383 0.033213787
0.01318493 -0.023952564 0.037378013 0.07653886 0.008241018 0.08720295 0.046639718 0.053867504
0.012879023 0.020192921 0.03810723 -0.052886587 -0.041509368 -0.016735768 -0.05388018 -0.028576486
0.0118477 0.11981818 0.11198304 0.13555862 -0.04837177 -0.036735967 -0.031202381 -0.09268541
-0.059300844 -0.06849512 -0.06093409 -0.06725684 -0.060347635 0.078145795 0.08658342 0.05515621
-0.07095009 -0.045616902 -0.03328559 -0.07293784 -0.0009288452 -0.06391574 -0.018099435 0.024989704
0.0027096204 -0.0064684683 0.0375227 -0.047562547 -0.08390248 -0.06145736 -0.0239353 -0.030756773
-0.025862928 0.026060317 0.113475226 0.11658743 0.09374002 0.026595097 0.03332187 2.7020578e-06
0.015000907 0.054877535 0.04701051 0.050741103 0.030200902 0.08150114 0.063918695 -0.008907928
0.11524212 -0.043692853 -0.08258698 -0.06236875 0.06516088 0.08260698 0.084715925 0.037264798
0.0049925693 0.045238413 0.04725601 0.06004059 0.091875546 0.041443307 0.030327162 0.04558192
-0.13967061 -0.124761395 -0.050641183 -0.1164563 -0.12643184 -0.22442694 -0.043436382 -0.0846388
-0.1445849 0.060239483 0.0468137 0.042514723 0.053288758 0.053307775 0.08980847 0.029431487
0.037972547 0.07805873 0.0026569148 0.014886396 0.043004505 -0.009217512 0.028170373 -0.007822233
-0.020557117 0.009183785 0.03613799 0.07976668 0.1087389 0.12122351 -0.042208113 -0.032946393
0.03557286 0.0094684325 -0.041012596 -0.014220837 -0.09243005 -0.10897977 -0.06493749 -0.017905315
-0.04457475 -0.012711847 0.032871503 0.053188946 0.020084044 0.04903161 0.04068482 -0.012086374
0.08864613 0.026607424 0.035391603 0.005145364 0.01797734 0.026803404 -0.05440731 -0.037077572
-0.042729825 0.021895565 -0.027717773 0.0075994227 0.06330375 0.015067414 0.10135614 -0.051194653
00000000: 8400 c7bb ab60 6f3b 8796 3abc e4e2 153c
00000010: 2d60 933d acb4 133d 6529 aa3b 4bcc fcbc
00000020: e52e c1bd 37ca 10be d816 18be 1ef8 2cbe
00000030: 2b83 02be 9f79 19be 910d a7bd f4af bf3b
00000040: fdac 9c3d 8b4d 973d 219e 9abc 7781 00bd
00000050: a73a e9bb 3ef2 aabd a421 d9bd a8ee 20be
00000060: 3389 be3c cf49 2b3d 4568 9f3d 2828 3fbd
00000070: a705 83bd 311e b4bc 4e40 873c 4e31 493d
00000080: 8c18 893a e6bc b9bd 7963 78bd bf55 afbd
00000090: ef6d 62bd 24a2 48bd e1dd 2dbd 0d8c c73b
000000a0: 7018 2e3d eb7e 0dbd 27d9 9f3d c74f 8d3d
000000b0: 8986 773d 6db9 943d 0235 823d f77f 1d3c
000000c0: 1c43 303d 5091 9a3d 2eae a13d ba8b 8ebd
000000d0: 7f23 aabd a76c aabd b0a5 923d fb99 a2bc
000000e0: bc51 f7bb bed7 623d 6bcc 173d 31f8 cebc
000000f0: f589 1dbd 6c2d b7bc c549 703b caa7 2a3b
00000100: 9776 fa3c a0e6 4f3d 0170 cd3d 352a d03d
00000110: e3b3 b43c ebd9 4bbd e498 d1bd c029 b0bc
00000120: 8526 c13c c685 ee3c 5c27 36bc aee5 f23c
00000130: 449c 2b3a 363b 8dbc e307 003d 9386 8e3d
00000140: 45d8 a3bc 501f 493d 8682 a93b 902f 843d
00000150: c1eb 9c3c 4394 bc3b 1ac0 033c c752 88bc
00000160: 8c8a 5d3c 8bc9 49bc 3662 3c3d c000 8d3d
00000170: fbf9 d4bb ba51 2a3e 7887 193e c9bd 3a3e
00000180: c3e7 10bc 704d 123b 1d80 ca3c e175 723c
00000190: 9b9b 60bc 6966 6c3c e4d0 99bc a9c2 b9bc
000001a0: 9cd3 71bd 6d2c 9fbc 88c4 2cbd f681 0fbd
000001b0: f23f 133e f7a7 2d3e fe98 533e 2e0b 083d
000001c0: 9b05 583c 2b38 c4bc b019 193d 68c0 9c3d
000001d0: 5605 073c 7697 b23d 4a09 3f3d 2ca4 5c3d
000001e0: 8a02 533c a06b a53c 5416 1c3d 9b9f 58bd
000001f0: ba05 2abd 7319 89bc 77b1 5cbd 3c19 eabc
00000200: db1c 423c 3c63 f53d 5d57 e53d e1cf 0a3e
00000210: 7a21 46bd 7478 16bd 239c ffbc d9d1 bdbd
00000220: 71e5 72bd 2b47 8cbd 0696 79bd f4bd 89bd
00000230: 152f 77bd e70a a03d a652 b13d 7aeb 613d
00000240: 484e 91bd cad8 3abd 7956 08bd 6f60 95bd
00000250: bf7d 73ba 41e6 82bd 4445 94bc 35b7 cc3c
00000260: e393 313b 72f5 d3bb 67b1 193d f2d0 42bd
00000270: 10d5 abbd b6ba 7bbd f613 c4bc a1f5 fbbc
00000280: 7ede d3bc 727c d53c b365 e83d 64c5 ee3d
00000290: c5fa bf3d f6dd d93c 837c 083d 0055 3536
000002a0: 5dc6 753c 44c7 603d 188e 403d e7d5 4f3d
000002b0: e267 f73c 12ea a63d cee7 823d 8ff2 11bc
000002c0: 1004 ec3d 47f7 32bd 5d23 a9bd 6076 7fbd
000002d0: 1173 853d d92d a93d 8b7f ad3d f9a2 183d
000002e0: b598 a33b ea4b 393d 858f 413d 1fed 753d
000002f0: 3f29 bc3d 75c0 293d ab70 f83c 1bb4 3a3d
00000300: d005 0fbe e782 ffbd 216d 4fbd a480 eebd
00000310: 5977 01be 2dd0 65be 59ea 31bd 1b57 adbd
00000320: 100e 14be adbd 763d b9bf 3f3d eb23 2e3d
00000330: 5045 5a3d 4159 5a3d 81ed b73d 4d1a f13c
00000340: 1a89 1b3d 41dd 9f3d a21f 2e3b 12e6 733c
00000350: 7e25 303d 0c05 17bc 8ec5 e63c d328 00bc
00000360: 6667 a8bc 9677 163c 6e05 143d b75c a33d
00000370: 80b2 de3d 0844 f83d 6ae2 2cbd ccf2 06bd
00000380: d9b4 113d 7c21 1b3c d3fc 27bd 83fe 68bc
00000390: f74b bdbd c930 dfbd f2fd 84bd 2bae 92bc
000003a0: 0394 36bd 5a45 50bc 45a4 063d a7dc 593d
000003b0: 4b87 a43c 5fd5 483d 20a5 263d ed05 46bc
000003c0: 1a8c b53d d0f7 d93c c9f6 103d 719a a83b
000003d0: 3745 933c d092 db3c 33da 5ebd a7de 17bd
000003e0: 7805 2fbd 545e b33c 6210 e3bc 9404 f93b
000003f0: 65a5 813d 51dd 763c cf93 cf3d 7cb1 51bd

temporal_net.0.net.0.bias f4 [128]
0.0006032217 -0.00032544063 -4.5457506e-05 0.00031278882 -0.0004496998 1.5155936e-05 -0.0014307675 0.00017815831
0.0011161335 -0.0021482606 0.0001004245 -0.00023412472 0.000439787 -0.00062866183 -0.00019052162 0.00035165396
7.1623363e-06 0.00019829835 0.00021959812 0.00024756958 -1.3134695e-05 0.0013852238 0.00064740836 -9.393847e-05
0.00014248517 -0.0004420643 -0.0005648614 0.00034412538 -2.1696746e-05 0.00038895739 -0.00035636235 6.583138e-09
-0.0009286576 -9.731714e-05 -0.0013425256 -0.0002543255 -0.0004332941 0.00053994503 -0.00024334952 -0.00021048855
-2.4039451e-05 0.00038611065 0.00013796226 -0.00069766655 0.00036151393 0.00073196995 0.00020128717 0.00068665534
-0.00078165345 0.00026202106 0.0010453645 0.000102388054 -0.0001754482 -0.000654064 0.0004247603 -0.0011080841
-0.00069619506 -0.00014826909 1.5029371e-05 -0.00014467546 -0.0011961118 7.800227e-06 0.0002615064 -0.00011867498
0.00026116637 -0.00027190067 -0.0008185106 -0.0008623018 0.00067763164 2.675777e-06 0.00018520269 0.00033829978
0.00069529994 -0.0008894371 -3.507352e-05 -0.00026712212 0.00034527603 -0.00023897365 -0.0007787377 0.00047758038
7.2392606e-05 -0.00016615816 -0.00031793176 -0.00043820433 -0.0001515139 0.0009264703 -0.00030710828 -0.00064278196
4.6211426e-06 0.00020718804 0.00059871783 8.183538e-05 0.0002583199 -0.00095042074 -6.9001755e-05 -4.60687e-05
0.0001100461 -0.00039584024 -0.00016521837 0.00071181677 0.0006906875 0.0003046688 0.0006254518 0.00047347407
-0.0005701111 -0.00013635568 5.7328103e-05 0.0010620368 -0.0006211169 8.096479e-05 0.00056427397 -0.000328654
0.00029015026 2.7155462e-05 0.0004854462 -9.06021e-05 0.00034180903 0.0002499509 9.4109004e-05 -0.00049239927
0.0006472535 0.00042911991 0.000550289 0.00053335406 0.0015044783 0.00024720852 7.2668474e-05 0.00028681668
00000000: 8621 1e3a e79f aab9 a0a9 3eb8 cefd a339
00000010: afc5 ebb9 4046 7e37 9788 bbba 02d0 3a39
00000020: 3a4b 923a d5c9 0cbb fe9a d238 607f 75b9
00000030: 3693 e639 c8cc 24ba c2c6 47b9 325e b839
00000040: 0054 f036 4fee 4f39 ec43 6639 3acc 8139
00000050: 165d 5cb7 6690 b53a d7b6 293a d500 c5b8
00000060: 1268 1539 dec4 e7b9 3513 14ba ba6b b439
00000070: 6801 b6b7 faec cb39 25d6 bab9 e531 e231
00000080: 2871 73ba be16 ccb8 aff7 afba fe56 85b9
00000090: c02b e3b9 198b 0d3a a42b 7fb9 97b6 5cb9
000000a0: 54a8 c9b7 e56e ca39 f6a9 1039 9ce3 36ba
000000b0: 9489 bd39 ace1 3f3a 9d10 5339 a900 343a
000000c0: e0e7 4cba df5f 8939 9d04 893a 2bb9 d638
000000d0: 84f8 37b9 7e75 2bba 5db2 de39 223d 91ba
000000e0: dc80 36ba ae78 1bb9 a826 7c37 06b4 17b9
000000f0: dac6 9cba b8dd 0237 cb1a 8939 25e1 f8b8
00000100: 28ed 8839 e48d 8eb9 5191 56ba 180c 62ba
00000110: 17a3 313a 8091 3336 f832 4239 d45d b139
00000120: ca44 363a 1d29 69ba e81b 13b8 860c 8cb9
00000130: 2a06 b539 0095 7ab9 3424 4cba c163 fa39
00000140: 7cd1 9738 be3a 2eb9 14b0 a6b9 cabe e5b9
00000150: b4df 1eb9 5fde 723a 6003 a1b9 5e80 28ba
00000160: 500f 9b36 9e40 5939 46f3 1c3a 099f ab38
00000170: 1c6f 8739 a825 79ba 09b5 90b8 e439 41b8
00000180: 8dc8 e638 c788 cfb9 783e 2db9 3799 3a3a
00000190: 410f 353a f4bb 9f39 5cf5 233a 9d3c f839
000001a0: 8273 15ba b3fa 0eb9 9573 7038 0b34 8b3a
000001b0: 73d2 22ba a4cb a938 c9eb 133a 314f acb9
000001c0: 4f1f 9839 e9cb e337 7c83 fe39 a201 beb8
000001d0: d534 b339 d80b 8339 635c c538 5b14 01ba
000001e0: 72ac 293a 80fb e039 4541 103a c9d0 0b3a
000001f0: ea31 c53a c49b 8139 9765 9838 e25f 9639

temporal_net.0.net.1.weight f4 [128]
0.7292957 0.79438496 1.0002131 0.75859046 0.78456604 0.6091943 0.83443797 0.5389288
0.9531462 0.89635426 0.30593076 0.68764275 0.97979903 0.74689776 0.8490276 0.53153443
0.2973421 0.88714087 0.5902794 0.4898883 0.24547656 0.778762 0.9271598 0.30782714
0.67718434 0.73050654 0.9396368 0.4686917 0.9290962 0.8622229 0.64029175 0.1190972
0.5732765 0.48666477 1.0160854 0.73004675 0.8108773 0.8733008 0.48171774 0.7292359
0.32031342 0.60222393 0.6399684 0.932598 0.75780624 0.6490669 0.45384616 0.6452196
0.60610855 0.6893936 0.8202073 0.4728244 0.7564431 0.65288186 0.8317922 0.9412531
0.54629725 0.9120993 0.8624277 0.50784075 0.8078429 0.49338642 0.28592572 0.7071005
0.69105625 0.31965664 0.610135 0.49158588 0.92194206 0.64187443 0.76749396 0.8648974
0.9718573 0.80690306 0.6509216 0.6258014 0.65890163 0.7394647 0.9336571 0.79766476
0.8667266 0.8277184 0.6446612 0.89055854 0.29648688 0.8704782 0.8945594 0.8546376
0.5644357 1.0140295 0.7105415 0.7580883 0.72906035 0.78760886 0.8195235 0.8565043
0.3490335 0.74967885 0.8680485 0.8710916 0.92899024 0.6545236 0.7304587 0.50904304
0.58513427 0.69103223 0.4283713 0.8636799 1.0403072 0.57988226 0.8014115 0.70437914
0.7943572 0.39011973 0.3913643 0.55722904 0.62660575 0.5938466 0.9219859 0.52698493
0.73995167 0.62337434 0.7518282 0.8774465 0.593966 0.81133133 0.8186785 0.7878322
00000000: 1fb3 3a3f d05c 4b3f fc06 803f fc32 423f
00000010: 52d9 483f 28f4 1b3f ba9d 553f 3df7 093f
00000020: 6401 743f 7977 653f f5a2 9c3e 5b09 303f
00000030: 1cd4 7a3f b134 3f3f df59 593f a412 083f
00000040: 393d 983e aa1b 633f 8d1c 173f a4d2 fa3e
00000050: 355e 7b3e f25c 473f 585a 6d3f 859b 9d3e
00000060: f45b 2d3f 7a02 3b3f 0a8c 703f 5cf8 ef3e
00000070: 40d9 6d3f a4ba 5c3f 29ea 233f 3ce9 f33d
00000080: 40c2 123f 202c f93e 160f 823f 58e4 3a3f
00000090: a895 4f3f a490 5f3f b5a3 f63e 34af 3a3f
000000a0: 1f00 a43e 592b 1a3f f8d4 233f bebe 6e3f
000000b0: 97ff 413f 4029 263f 865e e83e 1d2d 253f
000000c0: ee29 1b3f 197c 303f 1bf9 513f 0a16 f23e
000000d0: 41a6 413f 4423 273f 55f0 543f f7f5 703f
000000e0: 23da 0b3f 577f 693f 10c8 5c3f da01 023f
000000f0: cbce 4e3f 259d fc3e db64 923e 8a04 353f
00000100: 10e9 303f 09aa a33e cf31 1c3f 25b1 fb3e
00000110: 6504 6c3f e251 243f 7c7a 443f ea69 5d3f
00000120: a4cb 783f 3391 4e3f cca2 263f 8534 203f
00000130: c7ad 283f 8f4d 3d3f 2704 6f3f c233 4c3f
00000140: cbe1 5d3f 5ae5 533f 8408 253f a5fb 633f
00000150: 21cd 973e a9d7 5e3f d801 653f 88c9 5a3f
00000160: dc7e 103f b8cb 813f 0ce6 353f 1312 423f
00000170: b3a3 3a3f bca0 493f 4bcc 513f de43 5b3f
00000180: 85b4 b23e f4ea 3f3f 6d38 5e3f dcff 5e3f
00000190: 4ed2 6d3f dc8e 273f 57ff 3a3f a550 023f
000001a0: 5ccb 153f 7de7 303f 7c53 db3e 201a 5d3f
000001b0: c928 853f 2a73 143f 4e29 4d3f 3152 343f
000001c0: fe5a 4b3f c6bd c73e e760 c83e 90a6 0e3f
000001d0: 3c69 203f 5506 183f 4507 6c3f 7ce8 063f
000001e0: 796d 3d3f 7695 1f3f d077 403f 55a0 603f
000001f0: 280e 183f 69b3 4f3f ea94 513f 5faf 493f

temporal_net.0.net.1.bias f4 [128]
-0.13932598 -0.31565496 -0.018237239 -0.21142486 -0.20781869 -0.1705164 -0.28151077 -0.18634674
-0.06075124 -0.3522496 -0.25131026 -0.23554283 -0.011691587 -0.10614428 -0.010980501 -0.2621459
-0.27810547 -0.1588096 -0.20649345 -0.2723678 -0.22853445 -0.14774516 -0.11561917 -0.1924565
-0.04610251 -0.14140895 -0.19938032 -0.19402789 -0.21019995 -0.118081875 -0.3331482 -0.11090745
-0.244787 -0.3041213 -0.28404677 -0.23599909 -0.2614728 -0.08939166 -0.30360568 -0.18833862
-0.20948003 -0.21791957 -0.22016369 -0.14995627 -0.0849664 -0.3315414 -0.31860742 -0.07179116
-0.24037935 -0.36813897 -0.1185233 -0.19429784 -0.09344434 -0.12664297 -0.14737439 -0.11945183
-0.24479151 -0.4017488 -0.12346817 -0.298084 -0.1362154 -0.1628234 -0.23839638 -0.13360944
-0.1695159 -0.17675556 -0.36861607 -0.2050186 -0.0060216906 -0.18666449 -0.12800169 -0.08518897
-0.11021573 -0.16898584 -0.20809983 -0.31368178 -0.13549341 -0.15506633 -0.053689376 -0.21655686
-0.14051172 -0.031354155 -0.19081026 -0.10136609 -0.19828726 -0.13543838 -0.11983963 -0.2967376
-0.17536332 -0.039098173 -0.10515991 -0.06720231 -0.2463217 -0.4152233 -0.2108181 -0.07290711
-0.20863791 -0.0999524 -0.2060503 -0.13896497 -0.09992053 -0.100642025 -0.3205501 -0.29316103
-0.147862 -0.1172875 -0.24050982 -0.09881748 -0.008181585 -0.2442089 -0.32610834 -0.286162
-0.15671727 -0.22440478 -0.21356891 -0.11499209 -0.29379937 -0.018740665 -0.3181108 -0.21923095
-0.19841325 -0.12784643 -0.23847073 -0.087858506 -0.07059431 -0.17384548 -0.22332487 -0.24979506
00000000: 78ab 0ebe 879d a1be 4366 95bc c27f 58be
00000010: 6cce 54be da9b 2ebe 2e22 90be aed1 3ebe
00000020: 4bd6 78bd 0f5a b4be bdab 80be 2432 71be
00000030: 128e 3fbc 2c62 d9bd 8fe7 33bc fd37 86be
00000040: d763 8ebe fc9e 22be 0573 53be cb73 8bbe
00000050: ef04 6abe 824a 17be bec9 ecbd 5113 45be
00000060: fcd5 3cbd 82cd 10be 5b2a 4cbe 3faf 46be
00000070: a83e 57be e9d4 f1bd 6792 aabe 7223 e3bd
00000080: 71a9 7abe c9b5 9bbe 946e 91be bfa9 71be
00000090: c3df 85be fa12 b7bd 3472 9bbe d7db 40be
000000a0: ef81 56be 4f26 5fbe 9772 61be 238e 19be
000000b0: dd02 aebd cbbf a9be 8320 a3be 3e07 93bd
000000c0: 0126 76be b67c bcbe 58bc f2bd 03f6 46be
000000d0: bf5f bfbd b2ae 01be 50e9 16be 29a3 f4bd
000000e0: a0aa 7abe 05b2 cdbe e1dc fcbd 779e 98be
000000f0: 0d7c 0bbe 2dbb 26be 2e1e 74be ead0 08be
00000100: 9395 2dbe 69ff 34be 3fbb bcbe 65f0 51be
00000110: 9a51 c5bb fa24 3fbe e012 03be 8e77 aebd
00000120: c9b8 e1bd a00a 2dbe 1f18 55be e69a a0be
00000130: c9be 0abe b5c9 1ebe 64e9 5bbd 15c1 5dbe
00000140: 4ee2 0fbe 376d 00bd c463 43be 0699 cfbd
00000150: d10b 4bbe 5cb0 0abe 7b6e f5bd feed 97be
00000160: 7192 33be 6825 20bd 145e d7bd 5da1 89bd
00000170: c13b 7cbe 2698 d4be b3e0 57be 5350 95bd
00000180: 2da5 55be d8b3 ccbd dafe 52be d54c 0ebe
00000190: 23a3 ccbd 681d cebd 251f a4be 3419 96be
000001a0: 2369 17be 6e34 f0bd 3548 76be d260 cabd
000001b0: 0e0c 06bc e611 7abe acf7 a6be d383 92be
000001c0: 7e7a 20be 5eca 65be cfb1 5abe f980 ebbd
000001d0: df6c 96be 0686 99bc 6bdf a2be 147e 60be
000001e0: d82c 4bbe 2dea 02be ac31 74be 29ef b3bd
000001f0: c093 90bd 8d04 32be 46af 64be 47ca 7fbe

temporal_net.0.net.1.running_mean f4 [128]
0.0437161 -0.038603697 0.19675793 -0.29604307 -0.15269287 -0.086855724 -0.17303158 -0.07413388
-0.030071722 -0.09085702 0.10663986 -0.35414663 0.044831388 0.045661993 0.066889085 -0.16859117
0.18054077 -0.24396119 -0.34385014 0.1518532 -0.06630692 -0.10078426 -0.004652508 0.06004404
-0.20599103 -0.08423323 -0.08929807 -0.15369338 -0.17838451 0.11563833 -0.1434401 0.015743593
-0.058030486 -0.14893804 -0.051277436 -0.29957557 -0.12697572 -0.27998883 -0.14230642 0.015786245
-0.06699258 -0.14000012 0.09895583 -0.09706499 0.052686173 0.03599071 -0.1565333 0.1354196
-0.34315905 -0.33633053 -0.03622152 -0.052247826 0.0049964646 -0.15415792 -0.0937548 -0.114060804
0.06313544 -0.067206144 0.050732885 -0.14152163 0.01770764 -0.10229094 0.20389585 0.20976643
-0.15241429 0.02230196 -0.038550377 0.032227892 0.20428357 -0.003699205 -0.012879865 0.039204106
-0.056290653 -0.018181048 -0.26967552 -0.29487324 0.18222883 -0.42788088 -0.049396902 -0.19068837
-0.16235626 0.14949362 -0.08552081 -0.104267955 0.07869921 0.028944513 0.019494673 0.04737533
0.19970039 -0.047604542 -0.05245784 0.007043836 -0.3111852 -0.04601551 -0.077115916 -0.0915789
-0.023197927 -0.002595588 -0.10396095 0.03803316 -0.026936365 -0.18964271 -0.0049229576 -0.040329047
0.034584202 0.14303036 -0.12926516 -0.044527028 -0.019648263 0.008174493 -0.14346442 -0.30877426
-0.19125271 -0.20871006 -0.24093133 0.071523674 0.0055656284 -0.09161753 -0.07160872 -0.02357417
-0.19574817 -0.03706103 -0.34724182 -0.10116101 0.20086057 -0.18100281 -0.075921185 -0.0556954
00000000: a70f 333d e91e 1ebd e97a 493e f592 97be
00000010: 855b 1cbe 6ae1 b1bd 312f 31be 81d3 97bd
00000020: f958 f6bc 3f13 babd 0066 da3d b552 b5be
00000030: 1ea1 373d 1208 3b3d 25fd 883d 2aa3 2cbe
00000040: aedf 383e f6d0 79be 200d b0be 687f 1b3e
00000050: eccb 87bd fa67 cebd 1174 98bb bdf0 753d
00000060: 50ef 52be 7982 acbd e8e1 b6bd cc61 1dbe
00000070: 6eaa 36be cad3 ec3d f6e1 12be b5f8 803c
00000080: 60b1 6dbd 3783 18be 4a08 52bd f861 99be
00000090: ec05 02be b25a 8fbe c6b8 11be 2852 813c
000000a0: 6833 89bd 315c 0fbe 5ba9 ca3d 02ca c6bd
000000b0: 75cd 573d ff6a 133d 444a 20be 70ab 0a3e
000000c0: 8bb2 afbe 8433 acbe 045d 14bd d101 56bd
000000d0: 62b9 a33b 93db 1dbe 8402 c0bd b698 e9bd
000000e0: 274d 813d 60a3 89bd 49cd 4f3d 0ceb 10be
000000f0: 9d0f 913c ea7d d1bd 13ca 503e 03cd 563e
00000100: 7e12 1cbe 9ab2 b63c 00e7 1dbd 6501 043d
00000110: b62f 513e 5c6e 72bb 1206 53bc 7c94 203d
00000120: 0791 66bd 6cf0 94bc e912 8abe a0f9 96be
00000130: 329a 3a3e 3413 dbbe 6854 4abd d043 43be
00000140: b840 26be db14 193e 8925 afbd 708a d5bd
00000150: 0d2d a13d 0b1d ed3c 4bb3 9f3c a20c 423d
00000160: 427e 4c3e fbfc 42bd 08de 56bd fbcf e63b
00000170: ab53 9fbe c27a 3cbd f3ee 9dbd b88d bbbd
00000180: 9409 bebc be1a 2abb 7be9 d4bd a9c8 1b3d
00000190: a7a9 dcbc b331 42be c350 a1bb 1230 25bd
000001a0: 2aa8 0d3d 8d76 123e 165e 04be f961 36bd
000001b0: 65f5 a0bc 4fee 053c 56e8 12be a917 9ebe
000001c0: c0d7 43be 17b8 55be b4b6 76be 017b 923d
000001d0: e05f b63b f9a1 bbbd 98a7 92bd 9e1e c1bc
000001e0: 3572 48be 4ecd 17bd aec9 b1be 812d cfbd
000001f0: 65ae 4d3e cd58 39be 917c 9bbd dc20 64bd

temporal_net.0.net.1.running_var f4 [128]
0.0040347683 0.005538953 0.005834779 0.0032380638 0.004157091 0.001506063 0.0045755254 0.0013133965
0.006059822 0.004556821 0.0017387868 0.0045342147 0.007949839 0.0039607487 0.0038960471 0.0032455395
0.0037955635 0.0044601397 0.0029068969 0.0028102812 0.0014107557 0.0032416002 0.0048909085 0.0006019093
0.005272835 0.0052384473 0.005049006 0.0021073462 0.00292225 0.0037554132 0.00301111 1.5331852e-05
0.0027517295 0.0034417205 0.004885322 0.0041475114 0.0040910495 0.0046018423 0.003627093 0.0032781246
0.00034613567 0.0036516504 0.0035550112 0.006680217 0.0032301755 0.002682614 0.0035893535 0.0025646829
0.0048017637 0.004016795 0.003998755 0.0016751045 0.0034354543 0.0037413992 0.0040453686 0.005029992
0.0024367583 0.004375003 0.0047351317 0.0026722723 0.0027058395 0.00048618644 0.0021900323 0.0027525972
0.002929316 0.0014391354 0.0051624062 0.0018864902 0.009119577 0.003834246 0.0025405507 0.0070452546
0.0076004756 0.0062454515 0.0034585767 0.0040090857 0.0027854927 0.0070909336 0.0064652404 0.004790667
0.0036869696 0.0030383095 0.0014193167 0.0060616964 0.00038166626 0.003700978 0.004299833 0.0023014303
0.0030870435 0.009660783 0.0036089402 0.0023264913 0.0057950728 0.004296677 0.001607862 0.004953163
0.0017179205 0.0017740446 0.0040225303 0.0030812034 0.008007198 0.0066870786 0.0035948628 0.0010604527
0.0025042326 0.0021307715 0.0007570675 0.0034054257 0.010754278 0.0031194168 0.004219809 0.0033997616
0.0039151013 0.0023766328 0.001600439 0.0021179786 0.005114197 0.0025273834 0.0052221664 0.00208899
0.004580064 0.0039627524 0.00586743 0.0069979723 0.004374131 0.0043494944 0.0027460975 0.0063125854
00000000: 1736 843b 1b80 b53b ac31 bf3b b235 543b
00000010: 3538 883b 1767 c53a 4aee 953b 4626 ac3a
00000020: 7991 c63b 6351 953b 01e8 e33a c093 943b
00000030: 0b40 023c 2bc9 813b d354 7f3b 1eb3 543b
00000040: fdbe 783b 5d26 923b a381 3e3b b22c 383b
00000050: 1be9 b83a 0771 543b ea43 a03b 73c9 1d3a
00000060: bfc7 ac3b 48a7 ab3b 2272 a53b 671b 0a3b
00000070: 3883 3f3b 611d 763b 0b56 453b e79c 8037
00000080: 5c56 343b 7d8e 613b 0d15 a03b d9e7 873b
00000090: 360e 863b 0dcb 963b 86b4 6d3b ced5 563b
000000a0: 8b79 b539 8750 6f3b 31fb 683b b9e5 da3b
000000b0: 5ab1 533b cbce 2f3b 5c3b 6b3b 3d14 283b
000000c0: 1d58 9d3b 529f 833b fd07 833b 2e8f db3a
000000d0: 5c25 613b 4332 753b 038f 843b a2d2 a43b
000000e0: 05b2 1f3b 2f5c 8f3b 2a29 9b3b 4a21 2f3b
000000f0: 7454 313b d7e6 fe39 a586 0f3b eb64 343b
00000100: c4f9 3f3b 5fa1 bc3a 6729 a93b 1b44 f73a
00000110: 476a 153c f947 7b3b 5e7f 263b e1db e63b
00000120: 690d f93b a5a6 cc3b 4aa9 623b a65e 833b
00000130: d08c 363b 105b e83b 5eda d33b 07fb 9c3b
00000140: 16a1 713b 601e 473b 5e08 ba3a 32a1 c63b
00000150: 611a c839 1b8c 723b 9de5 8c3b 98d3 163b
00000160: ff4f 4a3b 4348 1e3c f883 6c3b 0c78 183b
00000170: 98e4 bd3b 24cb 8c3b e5be d23a 254e a23b
00000180: d92b e13a 0f87 e83a 6ecf 833b 04ee 493b
00000190: 9f30 033c 481f db3b ca97 6b3b e3fe 8a3a
000001a0: 0d1e 243b 6aa4 0b3b f175 463a 902d 5f3b
000001b0: b632 303c 216f 4c3b 5346 8a3b 89ce 5e3b
000001c0: 404a 803b 48c1 1b3b d2c5 d13a c9cd 0a3b
000001d0: fe94 a73b 75a2 253b b51e ab3b 70e7 083b
000001e0: 5d14 963b fad9 813b 9243 c03b 3f4f e53b
000001f0: df54 8f3b 3486 8e3b dff7 333b ced9 ce3b
